…
      sampler {
        min_scale: 0.3
        max_scale: 1
        min_aspect_ratio: 0.5
        max_aspect_ratio: 2
      }
      sample_constraint {
        min_jaccard_overlap: 0.9
      }
      max_sample: 1
      max_trials: 50
    }
    batch_sampler {
      sampler {
        min_scale: 0.3
        max_scale: 1
        min_aspect_ratio: 0.5
        max_aspect_ratio: 2
      }
      sample_constraint {
        max_jaccard_overlap: 1
      }
      max_sample: 1
      max_trials: 50
    }
    label_map_file: "data/VOC2007/labelmap_voc.prototxt"
  }
}
layer {
  name: "conv1_1"
  type: "Convolution"
  bottom: "data"
  top: "conv1_1"
  param {
    lr_mult: 0
    decay_mult: 0
  }
  param {
    lr_mult: 0
    decay_mult: 0
  }
  convolution_param {
    num_output: 64
    pad: 1
    kernel_size: 3
    weight_filler {
      type: "xavier"
    }
    bias_filler {
      type: "constant"
      value: 0
    }
  }
}
layer {
  name: "relu1_1"
  type: "ReLU"
  bottom: "conv1_1"
  top: "conv1_1"
}
layer {
  name: "conv1_2"
  type: "Convolution"
  bottom: "conv1_1"
  top: "conv1_2"
  param {
    lr_mult: 0
    decay_mult: 0
  }
  param {
    lr_mult: 0
    decay_mult: 0
  }
  convolution_param {
    num_output: 64
    pad: 1
    kernel_size: 3
    weight_filler {
      type: "xavier"
    }
    bias_filler {
      type: "constant"
      value: 0
    }
  }
}
layer {
  name: "relu1_2"
  type: "ReLU"
  bottom: "conv1_2"
  top: "conv1_2"
}
layer {
  name: "pool1"
  type: "Pooling"
  bottom: "conv1_2"
  top: "pool1"
  pooling_param {
    pool: MAX
    kernel_size: 2
    stride: 2
  }
}
layer {
  name: "conv2_1"
  type: "Convolution"
  bottom: "pool1"
  top: "conv2_1"
  param {
    lr_mult: 0
    decay_mult: 0
  }
  param {
    lr_mult: 0
    decay_mult: 0
  }
  convolution_param {
    num_output: 128
    pad: 1
    kernel_size: 3
    weight_filler {
      type: "xavier"
    }
    bias_filler {
      type: "constant"
      value: 0
    }
  }
}
layer {
  name: "relu2_1"
  type: "ReLU"
  bottom: "conv2_1"
  top: "conv2_1"
}
layer {
  name: "conv2_2"
  type: "Convolution"
  bottom: "conv2_1"
  top: "conv2_2"
  param {
    lr_mult: 0
    decay_mult: 0
  }
  param {
    lr_mult: 0
    decay_mult: 0
  }
  convolution_param {
    num_output: 128
    pad: 1
    kernel_size: 3
    weight_filler {
      type: "xavier"
    }
    bias_filler {
      type: "constant"
      value: 0
    }
  }
}
layer {
  name: "relu2_2"
  type: "ReLU"
  bottom: "conv2_2"
  top: "conv2_2"
}
layer {
  name: "pool2"
  type: "Pooling"
  bottom: "conv2_2"
  top: "pool2"
  pooling_param {
    pool: MAX
    kernel_size: 2
    stride: 2
  }
}
layer {
  name: "conv3_1"
  type: "Convolution"
  bottom: "pool2"
  top: "conv3_1"
  param {
    lr_mult: 1
    decay_mult: 1
  }
  param {
    lr_mult: 2
    decay_mult: 0
  }
  convolution_param {
    num_output: 256
    pad: 1
    kernel_size: 3
    weight_filler {
      type: "xavier"
    }
    bias_filler {
      type: "constant"
      value: 0
    }
  }
}
layer {
  name: "relu3_1"
  type: "ReLU"
  bottom: "conv3_1"
  top: "conv3_1"
}
layer {
  name: "conv3_2"
  type: "Convolution"
  bottom: "conv3_1"
  top: "conv3_2"
  param {
    lr_mult: 1
    decay_mult: 1
  }
  param {
    lr_mult: 2
    decay_mult: 0
  }
  convolution_param {
    num_output: 256
    pad: 1
    kernel_size: 3
    weight_filler {
      type: "xavier"
    }
    bias_filler {
      type: "constant"
      value: 0
    }
  }
}
layer {
  name: "relu3_2"
  type: "ReLU"
  bottom: "conv3_2"
  top: "conv3_2"
}
layer {
  name: "conv3_3"
  type: "Convolution"
  bottom: "conv3_2"
  top: "conv3_3"
  param {
    lr_mult: 1
    decay_mult: 1
  }
  param {
    lr_mult: 2
    decay_mult: 0
  }
  convolution_param {
    num_output: 256
    pad: 1
    kernel_size: 3
    weight_filler {
      type: "xavier"
    }
    bias_filler {
      type: "constant"
      value: 0
    }
  }
}
layer {
  name: "relu3_3"
  type: "ReLU"
  bottom: "conv3_3"
  top: "conv3_3"
}
layer {
  name: "pool3"
  type: "Pooling"
  bottom: "conv3_3"
  top: "pool3"
  pooling_param {
    pool: MAX
    kernel_size: 2
    stride: 2
  }
}
layer {
  name: "conv4_1"
  type: "Convolution"
  bottom: "pool3"
  top: "conv4_1"
  param {
    lr_mult: 1
    decay_mult: 1
  }
  param {
    lr_mult: 2
    decay_mult: 0
  }
  convolution_param {
    num_output: 512
    pad: 1
    kernel_size: 3
    weight_filler {
      type: "xavier"
    }
    bias_filler {
      type: "constant"
      value: 0
    }
  }
}
layer {
  name: "relu4_1"
  type: "ReLU"
  bottom: "conv4_1"
  top: "conv4_1"
}
layer {
  name: "conv4_2"
  type: "Convolution"
  bottom: "conv4_1"
  top: "conv4_2"
  param {
    lr_mult: 1
    decay_mult: 1
  }
  param {
    lr_mult: 2
    decay_mult: 0
  }
  convolution_param {
    num_output: 512
    pad: 1
    kernel_size: 3
    weight_filler {
      type: "xavier"
    }
    bias_filler {
      type: "constant"
      value: 0
    }
  }
}
layer {
  name: "relu4_2"
  type: "ReLU"
  bottom: "conv4_2"
  top: "conv4_2"
}
layer {
  name: "conv4_3"
  type: "Convolution"
  bottom: "conv4_2"
  top: "conv4_3"
  param {
    lr_mult: 1
    decay_mult: 1
  }
  param {
    lr_mult: 2
    decay_mult: 0
  }
  convolution_param {
    num_output: 512
    pad: 1
    kernel_size: 3
    weight_filler {
      type: "xavier"
    }
    bias_filler {
      type: "constant"
      value: 0
    }
  }
}
layer {
  name: "relu4_3"
  type: "ReLU"
  bottom: "conv4_3"
  top: "conv4_3"
}
layer {
  name: "pool4"
  type: "Pooling"
  bottom: "conv4_3"
  top: "pool4"
  pooling_param {
    pool: MAX
    kernel_size: 2
    stride: 2
  }
}
layer {
  name: "conv5_1"
  type: "Convolution"
  bottom: "pool4"
  top: "conv5_1"
  param {
    lr_mult: 1
    decay_mult: 1
  }
  param {
    lr_mult: 2
    decay_mult: 0
  }
  convolution_param {
    num_output: 512
    pad: 1
    kernel_size: 3
    weight_filler {
      type: "xavier"
    }
    bias_filler {
      type: "constant"
      value: 0
    }
  }
}
layer {
  name: "relu5_1"
  type: "ReLU"
  bottom: "conv5_1"
  top: "conv5_1"
}
layer {
  name: "conv5_2"
  type: "Convolution"
  bottom: "conv5_1"
  top: "conv5_2"
  param {
    lr_mult: 1
    decay_mult: 1
  }
  param {
    lr_mult: 2
    decay_mult: 0
  }
  convolution_param {
    num_output: 512
    pad: 1
    kernel_size: 3
    weight_filler {
      type: "xavier"
    }
    bias_filler {
      type: "constant"
      value: 0
    }
  }
}
layer {
  name: "relu5_2"
  type: "ReLU"
  bottom: "conv5_2"
  top: "conv5_2"
}
layer {
  name: "conv5_3"
  type: "Convolution"
  bottom: "conv5_2"
  top: "conv5_3"
  param {
    lr_mult: 1
    decay_mult: 1
  }
  param {
    lr_mult: 2
    decay_mult: 0
  }
  convolution_param {
    num_output: 512
    pad: 1
    kernel_size: 3
    weight_filler {
      type: "xavier"
    }
    bias_filler {
      type: "constant"
      value: 0
    }
  }
}
layer {
  name: "relu5_3"
  type: "ReLU"
  bottom: "conv5_3"
  top: "conv5_3"
}
layer {
  name: "pool5"
  type: "Pooling"
  bottom: "conv5_3"
  top: "pool5"
  pooling_param {
    pool: MAX
    kernel_size: 3
    stride: 1
    pad: 1
  }
}
layer {
  name: "fc6"
  type: "Convolution"
  bottom: "pool5"
  top: "fc6"
  param {
    lr_mult: 1
    decay_mult: 1
  }
  param {
    lr_mult: 2
    decay_mult: 0
  }
  convolution_param {
    num_output: 1024
    pad: 6
    kernel_size: 3
    weight_filler {
      type: "xavier"
    }
    bias_filler {
      type: "constant"
      value: 0
    }
    dilation: 6
  }
}
layer {
  name: "relu6"
  type: "ReLU"
  bottom: "fc6"
  top: "fc6"
}
layer {
  name: "fc7"
  type: "Convolution"
  bottom: "fc6"
  top: "fc7"
  param {
    lr_mult: 1
    decay_mult: 1
  }
  param {
    lr_mult: 2
    decay_mult: 0
  }
  convolution_param {
    num_output: 1024
    kernel_size: 1
    weight_filler {
      type: "xavier"
    }
    bias_filler {
      type: "constant"
      value: 0
    }
  }
}
layer {
  name: "relu7"
  type: "ReLU"
  bottom: "fc7"
  top: "fc7"
}
layer {
  name: "conv6_1"
  type: "Convolution"
  bottom: "fc7"
  top: "conv6_1"
  param {
    lr_mult: 1
    decay_mult: 1
  }
  param {
    lr_mult: 2
    decay_mult: 0
  }
  convolution_param {
    num_output: 256
    pad: 0
    kernel_size: 1
    stride: 1
    weight_filler {
      type: "xavier"
    }
    bias_filler {
      type: "constant"
      value: 0
    }
  }
}
layer {
  name: "conv6_1_relu"
  type: "ReLU"
  bottom: "conv6_1"
  top: "conv6_1"
}
layer {
  name: "conv6_2"
  type: "Convolution"
  bottom: "conv6_1"
  top: "conv6_2"
  param {
    lr_mult: 1
    decay_mult: 1
  }
  param {
    lr_mult: 2
    decay_mult: 0
  }
  convolution_param {
    num_output: 512
    pad: 1
    kernel_size: 3
    stride: 2
    weight_filler {
      type: "xavier"
    }
    bias_filler {
      type: "constant"
      value: 0
    }
  }
}
layer {
  name: "conv6_2_relu"
  type: "ReLU"
  bottom: "conv6_2"
  top: "conv6_2"
}
layer {
  name: "conv7_1"
  type: "Convolution"
  bottom: "conv6_2"
  top: "conv7_1"
  param {
    lr_mult: 1
    decay_mult: 1
  }
  param {
    lr_mult: 2
    decay_mult: 0
  }
  convolution_param {
    num_output: 128
    pad: 0
    kernel_size: 1
    stride: 1
    weight_filler {
      type: "xavier"
    }
    bias_filler {
      type: "constant"
      value: 0
    }
  }
}
layer {
  name: "conv7_1_relu"
  type: "ReLU"
  bottom: "conv7_1"
  top: "conv7_1"
}
layer {
  name: "conv7_2"
  type: "Convolution"
  bottom: "conv7_1"
  top: "conv7_2"
  param {
    lr_mult: 1
    decay_mult: 1
  }
  param {
    lr_mult: 2
    decay_mult: 0
  }
  convolution_param {
    num_output: 256
    pad: 1
    kernel_size: 3
    stride: 2
    weight_filler {
      type: "xavier"
    }
    bias_filler {
      type: "constant"
      value: 0
    }
  }
}
layer {
  name: "conv7_2_relu"
  type: "ReLU"
  bottom: "conv7_2"
  top: "conv7_2"
}
layer {
  name: "conv8_1"
  type: "Convolution"
  bottom: "conv7_2"
  top: "conv8_1"
  param {
    lr_mult: 1
    decay_mult: 1
  }
  param {
    lr_mult: 2
    decay_mult: 0
  }
  convolution_param {
    num_output: 128
    pad: 0
    kernel_size: 1
    stride: 1
    weight_filler {
      type: "xavier"
    }
    bias_filler {
      type: "constant"
      value: 0
    }
  }
}
layer {
  name: "conv8_1_relu"
  type: "ReLU"
  bottom: "conv8_1"
  top: "conv8_1"
}
layer {
  name: "conv8_2"
  type: "Convolution"
  bottom: "conv8_1"
  top: "conv8_2"
  param {
    lr_mult: 1
    decay_mult: 1
  }
  param {
    lr_mult: 2
    decay_mult: 0
  }
  convolution_param {
    num_output: 256
    pad: 1
    kernel_size: 3
    stride: 2
    weight_filler {
      type: "xavier"
    }
    bias_filler {
      type: "constant"
      value: 0
    }
  }
}
layer {
  name: "conv8_2_relu"
  type: "ReLU"
  bottom: "conv8_2"
  top: "conv8_2"
}
layer {
  name: "pool6"
  type: "Pooling"
  bottom: "conv8_2"
  top: "pool6"
  pooling_param {
    pool: AVE
    global_pooling: true
  }
}
layer {
  name: "conv4_3_norm"
  type: "Normalize"
  bottom: "conv4_3"
  top: "conv4_3_norm"
  norm_param {
    across_spatial: false
    scale_filler {
      type: "constant"
      value: 20
    }
    channel_shared: false
  }
}
layer {
  name: "conv4_3_norm_mbox_loc"
  type: "Convolution"
  bottom: "conv4_3_norm"
  top: "conv4_3_norm_mbox_loc"
  param {
    lr_mult: 1
    decay_mult: 1
  }
  param {
    lr_mult: 2
    decay_mult: 0
  }
  convolution_param {
    num_output: 12
    pad: 1
    kernel_size: 3
    stride: 1
    weight_filler {
      type: "xavier"
    }
    bias_filler {
      type: "constant"
      value: 0
    }
  }
}
layer {
  name: "conv4_3_norm_mbox_loc_perm"
  type: "Permute"
  bottom: "conv4_3_norm_mbox_loc"
  top: "conv4_3_norm_mbox_loc_perm"
  permute_param {
    order: 0
    order: 2
    order: 3
    order: 1
  }
}
layer {
  name: "conv4_3_norm_mbox_loc_flat"
  type: "Flatten"
  bottom: "conv4_3_norm_mbox_loc_perm"
  top: "conv4_3_norm_mbox_loc_flat"
  flatten_param {
    axis: 1
  }
}
layer {
  name: "conv4_3_norm_mbox_conf"
  type: "Convolution"
  bottom: "conv4_3_norm"
  top: "conv4_3_norm_mbox_conf"
  param {
    lr_mult: 1
    decay_mult: 1
  }
  param {
    lr_mult: 2
    decay_mult: 0
  }
  convolution_param {
    num_output: 6
    pad: 1
    kernel_size: 3
    stride: 1
    weight_filler {
      type: "xavier"
    }
    bias_filler {
      type: "constant"
      value: 0
    }
  }
}
layer {
  name: "conv4_3_norm_mbox_conf_perm"
  type: "Permute"
  bottom: "conv4_3_norm_mbox_conf"
  top: "conv4_3_norm_mbox_conf_perm"
  permute_param {
    order: 0
    order: 2
    order: 3
    order: 1
  }
}
layer {
  name: "conv4_3_norm_mbox_conf_flat"
  type: "Flatten"
  bottom: "conv4_3_norm_mbox_conf_perm"
  top: "conv4_3_norm_mbox_conf_flat"
  flatten_param {
    axis: 1
  }
}
layer {
  name: "conv4_3_norm_mbox_priorbox"
  type: "PriorBox"
  bottom: "conv4_3_norm"
  bottom: "data"
  top: "conv4_3_norm_mbox_priorbox"
  prior_box_param {
    min_size: 30
    aspect_ratio: 2
    flip: true
    clip: true
    variance: 0.1
    variance: 0.1
    variance: 0.2
    variance: 0.2
  }
}
layer {
  name: "fc7_mbox_loc"
  type: "Convolution"
  bottom: "fc7"
  top: "fc7_mbox_loc"
  param {
    lr_mult: 1
    decay_mult: 1
  }
  param {
    lr_mult: 2
    decay_mult: 0
  }
  convolution_param {
    num_output: 24
    pad: 1
    kernel_size: 3
    stride: 1
    weight_filler {
      type: "xavier"
    }
    bias_filler {
      type: "constant"
      value: 0
    }
  }
}
layer {
  name: "fc7_mbox_loc_perm"
  type: "Permute"
  bottom: "fc7_mbox_loc"
  top: "fc7_mbox_loc_perm"
  permute_param {
    order: 0
    order: 2
    order: 3
    order: 1
  }
}
layer {
  name: "fc7_mbox_loc_flat"
  type: "Flatten"
  bottom: "fc7_mbox_loc_perm"
  top: "fc7_mbox_loc_flat"
  flatten_param {
    axis: 1
  }
}
layer {
  name: "fc7_mbox_conf"
  type: "Convolution"
  bottom: "fc7"
  top: "fc7_mbox_conf"
  param {
    lr_mult: 1
    decay_mult: 1
  }
  param {
    lr_mult: 2
    decay_mult: 0
  }
  convolution_param {
    num_output: 12
    pad: 1
    kernel_size: 3
    stride: 1
    weight_filler {
      type: "xavier"
    }
    bias_filler {
      type: "constant"
      value: 0
    }
  }
}
layer {
  name: "fc7_mbox_conf_perm"
  type: "Permute"
  bottom: "fc7_mbox_conf"
  top: "fc7_mbox_conf_perm"
  permute_param {
    order: 0
    order: 2
    order: 3
    order: 1
  }
}
layer {
  name: "fc7_mbox_conf_flat"
  type: "Flatten"
  bottom: "fc7_mbox_conf_perm"
  top: "fc7_mbox_conf_flat"
  flatten_param {
    axis: 1
  }
}
layer {
  name: "fc7_mbox_priorbox"
  type: "PriorBox"
  bottom: "fc7"
  bottom: "data"
  top: "fc7_mbox_priorbox"
  prior_box_param {
    min_size: 60
    max_size: 114
    aspect_ratio: 2
    aspect_ratio: 3
    flip: true
    clip: true
    variance: 0.1
    variance: 0.1
    variance: 0.2
    variance: 0.2
  }
}
layer {
  name: "conv6_2_mbox_loc"
  type: "Convolution"
  bottom: "conv6_2"
  top: "conv6_2_mbox_loc"
  param {
    lr_mult: 1
    decay_mult: 1
  }
  param {
    lr_mult: 2
    decay_mult: 0
  }
  convolution_param {
    num_output: 24
    pad: 1
    kernel_size: 3
    stride: 1
    weight_filler {
      type: "xavier"
    }
    bias_filler {
      type: "constant"
      value: 0
    }
  }
}
layer {
  name: "conv6_2_mbox_loc_perm"
  type: "Permute"
  bottom: "conv6_2_mbox_loc"
  top: "conv6_2_mbox_loc_perm"
  permute_param {
    order: 0
    order: 2
    order: 3
    order: 1
  }
}
layer {
  name: "conv6_2_mbox_loc_flat"
  type: "Flatten"
  bottom: "conv6_2_mbox_loc_perm"
  top: "conv6_2_mbox_loc_flat"
  flatten_param {
    axis: 1
  }
}
layer {
  name: "conv6_2_mbox_conf"
  type: "Convolution"
  bottom: "conv6_2"
  top: "conv6_2_mbox_conf"
  param {
    lr_mult: 1
    decay_mult: 1
  }
  param {
    lr_mult: 2
    decay_mult: 0
  }
  convolution_param {
    num_output: 12
    pad: 1
    kernel_size: 3
    stride: 1
    weight_filler {
      type: "xavier"
    }
    bias_filler {
      type: "constant"
      value: 0
    }
  }
}
layer {
  name: "conv6_2_mbox_conf_perm"
  type: "Permute"
  bottom: "conv6_2_mbox_conf"
  top: "conv6_2_mbox_conf_perm"
  permute_param {
    order: 0
    order: 2
    order: 3
    order: 1
  }
}
layer {
  name: "conv6_2_mbox_conf_flat"
  type: "Flatten"
  bottom: "conv6_2_mbox_conf_perm"
  top: "conv6_2_mbox_conf_flat"
  flatten_param {
    axis: 1
  }
}
layer {
  name: "conv6_2_mbox_priorbox"
  type: "PriorBox"
  bottom: "conv6_2"
  bottom: "data"
  top: "conv6_2_mbox_priorbox"
  prior_box_param {
    min_size: 114
    max_size: 168
    aspect_ratio: 2
    aspect_ratio: 3
    flip: true
    clip: true
    variance: 0.1
    variance: 0.1
    variance: 0.2
    variance: 0.2
  }
}
layer {
  name: "conv7_2_mbox_loc"
  type: "Convolution"
  bottom: "conv7_2"
  top: "conv7_2_mbox_loc"
  param {
    lr_mult: 1
    decay_mult: 1
  }
  param {
    lr_mult: 2
    decay_mult: 0
  }
  convolution_param {
    num_output: 24
    pad: 1
    kernel_size: 3
    stride: 1
    weight_filler {
      type: "xavier"
    }
    bias_filler {
      type: "constant"
      value: 0
    }
  }
}
layer {
  name: "conv7_2_mbox_loc_perm"
  type: "Permute"
  bottom: "conv7_2_mbox_loc"
  top: "conv7_2_mbox_loc_perm"
  permute_param {
    order: 0
    order: 2
    order: 3
    order: 1
  }
}
layer {
  name: "conv7_2_mbox_loc_flat"
  type: "Flatten"
  bottom: "conv7_2_mbox_loc_perm"
  top: "conv7_2_mbox_loc_flat"
  flatten_param {
    axis: 1
  }
}
layer {
  name: "conv7_2_mbox_conf"
  type: "Convolution"
  bottom: "conv7_2"
  top: "conv7_2_mbox_conf"
  param {
    lr_mult: 1
    decay_mult: 1
  }
  param {
    lr_mult: 2
    decay_mult: 0
  }
  convolution_param {
    num_output: 12
    pad: 1
    kernel_size: 3
    stride: 1
    weight_filler {
      type: "xavier"
    }
    bias_filler {
      type: "constant"
      value: 0
    }
  }
}
layer {
  name: "conv7_2_mbox_conf_perm"
  type: "Permute"
  bottom: "conv7_2_mbox_conf"
  top: "conv7_2_mbox_conf_perm"
  permute_param {
    order: 0
    order: 2
    order: 3
    order: 1
  }
}
layer {
  name: "conv7_2_mbox_conf_flat"
  type: "Flatten"
  bottom: "conv7_2_mbox_conf_perm"
  top: "conv7_2_mbox_conf_flat"
  flatten_param {
    axis: 1
  }
}
layer {
  name: "conv7_2_mbox_priorbox"
  type: "PriorBox"
  bottom: "conv7_2"
  bottom: "data"
  top: "conv7_2_mbox_priorbox"
  prior_box_param {
    min_size: 168
    max_size: 222
    aspect_ratio: 2
    aspect_ratio: 3
    flip: true
    clip: true
    variance: 0.1
    variance: 0.1
    variance: 0.2
    variance: 0.2
  }
}
layer {
  name: "conv8_2_mbox_loc"
  type: "Convolution"
  bottom: "conv8_2"
  top: "conv8_2_mbox_loc"
  param {
    lr_mult: 1
    decay_mult: 1
  }
  param {
    lr_mult: 2
    decay_mult: 0
  }
  convolution_param {
    num_output: 24
    pad: 1
    kernel_size: 3
    stride: 1
    weight_filler {
      type: "xavier"
    }
    bias_filler {
      type: "constant"
      value: 0
    }
  }
}
layer {
  name: "conv8_2_mbox_loc_perm"
  type: "Permute"
  bottom: "conv8_2_mbox_loc"
  top: "conv8_2_mbox_loc_perm"
  permute_param {
    order: 0
    order: 2
    order: 3
    order: 1
  }
}
layer {
  name: "conv8_2_mbox_loc_flat"
  type: "Flatten"
  bottom: "conv8_2_mbox_loc_perm"
  top: "conv8_2_mbox_loc_flat"
  flatten_param {
    axis: 1
  }
}
layer {
  name: "conv8_2_mbox_conf"
  type: "Convolution"
  bottom: "conv8_2"
  top: "conv8_2_mbox_conf"
  param {
    lr_mult: 1
    decay_mult: 1
  }
  param {
    lr_mult: 2
    decay_mult: 0
  }
  convolution_param {
    num_output: 12
    pad: 1
    kernel_size: 3
    stride: 1
    weight_filler {
      type: "xavier"
    }
    bias_filler {
      type: "constant"
      value: 0
    }
  }
}
layer {
  name: "conv8_2_mbox_conf_perm"
  type: "Permute"
  bottom: "conv8_2_mbox_conf"
  top: "conv8_2_mbox_conf_perm"
  permute_param {
    order: 0
    order: 2
    order: 3
    order: 1
  }
}
layer {
  name: "conv8_2_mbox_conf_flat"
  type: "Flatten"
  bottom: "conv8_2_mbox_conf_perm"
  top: "conv8_2_mbox_conf_flat"
  flatten_param {
    axis: 1
  }
}
layer {
  name: "conv8_2_mbox_priorbox"
  type: "PriorBox"
  bottom: "conv8_2"
  bottom: "data"
  top: "conv8_2_mbox_priorbox"
  prior_box_param {
    min_size: 222
    max_size: 276
    aspect_ratio: 2
    aspect_ratio: 3
    flip: true
    clip: true
    variance: 0.1
    variance: 0.1
    variance: 0.2
    variance: 0.2
  }
}
layer {
  name: "pool6_mbox_loc"
  type: "Convolution"
  bottom: "pool6"
  top: "pool6_mbox_loc"
  param {
    lr_mult: 1
    decay_mult: 1
  }
  param {
    lr_mult: 2
    decay_mult: 0
  }
  convolution_param {
    num_output: 24
    pad: 1
    kernel_size: 3
    stride: 1
    weight_filler {
      type: "xavier"
    }
    bias_filler {
      type: "constant"
      value: 0
    }
  }
}
layer {
  name: "pool6_mbox_loc_perm"
  type: "Permute"
  bottom: "pool6_mbox_loc"
  top: "pool6_mbox_loc_perm"
  permute_param {
    order: 0
    order: 2
    order: 3
    order: 1
  }
}
layer {
  name: "pool6_mbox_loc_flat"
  type: "Flatten"
  bottom: "pool6_mbox_loc_perm"
  top: "pool6_mbox_loc_flat"
  flatten_param {
    axis: 1
  }
}
layer {
  name: "pool6_mbox_conf"
  type: "Convolution"
  bottom: "pool6"
  top: "pool6_mbox_conf"
  param {
    lr_mult: 1
    decay_mult: 1
  }
  param {
    lr_mult: 2
    decay_mult: 0
  }
  convolution_param {
    num_output: 12
    pad: 1
    kernel_size: 3
    stride: 1
    weight_filler {
      type: "xavier"
    }
    bias_filler {
      type: "constant"
      value: 0
    }
  }
}
layer {
  name: "pool6_mbox_conf_perm"
  type: "Permute"
  bottom: "pool6_mbox_conf"
  top: "pool6_mbox_conf_perm"
  permute_param {
    order: 0
    order: 2
    order: 3
    order: 1
  }
}
layer {
  name: "pool6_mbox_conf_flat"
  type: "Flatten"
  bottom: "pool6_mbox_conf_perm"
  top: "pool6_mbox_conf_flat"
  flatten_param {
    axis: 1
  }
}
layer {
  name: "pool6_mbox_priorbox"
  type: "PriorBox"
  bottom: "pool6"
  bottom: "data"
  top: "pool6_mbox_priorbox"
  prior_box_param {
    min_size: 276
    max_size: 330
    aspect_ratio: 2
    aspect_ratio: 3
    flip: true
    clip: true
    variance: 0.1
    variance: 0.1
    variance: 0.2
    variance: 0.2
  }
}
layer {
  name: "mbox_loc"
  type: "Concat"
  bottom: "conv4_3_norm_mbox_loc_flat"
  bottom: "fc7_mbox_loc_flat"
  bottom: "conv6_2_mbox_loc_flat"
  bottom: "conv7_2_mbox_loc_flat"
  bottom: "conv8_2_mbox_loc_flat"
  bottom: "pool6_mbox_loc_flat"
  top: "mbox_loc"
  concat_param {
    axis: 1
  }
}
layer {
  name: "mbox_conf"
  type: "Concat"
  bottom: "conv4_3_norm_mbox_conf_flat"
  bottom: "fc7_mbox_conf_flat"
  bottom: "conv6_2_mbox_conf_flat"
  bottom: "conv7_2_mbox_conf_flat"
  bottom: "conv8_2_mbox_conf_flat"
  bottom: "pool6_mbox_conf_flat"
  top: "mbox_conf"
  concat_param {
    axis: 1
  }
}
layer {
  name: "mbox_priorbox"
  type: "Concat"
  bottom: "conv4_3_norm_mbox_priorbox"
  bottom: "fc7_mbox_priorbox"
  bottom: "conv6_2_mbox_priorbox"
  bottom: "conv7_2_mbox_priorbox"
  bottom: "conv8_2_mbox_priorbox"
  bottom: "pool6_mbox_priorbox"
  top: "mbox_priorbox"
  concat_param {
    axis: 2
  }
}
layer {
  name: "mbox_loss"
  type: "MultiBoxLoss"
  bottom: "mbox_loc"
  bottom: "mbox_conf"
  bottom: "mbox_priorbox"
  bottom: "label"
  top: "mbox_loss"
  include {
    phase: TRAIN
  }
  propagate_down: true
  propagate_down: true
  propagate_down: false
  propagate_down: false
  loss_param {
    normalization: VALID
  }
  multibox_loss_param {
    loc_loss_type: SMOOTH_L1
    conf_loss_type: SOFTMAX
    loc_weight: 1
    num_classes: 2
    share_location: true
    match_type: PER_PREDICTION
    overlap_threshold: 0.5
    use_prior_for_matching: true
    background_label_id: 0
    use_difficult_gt: true
    do_neg_mining: true
    neg_pos_ratio: 3
    neg_overlap: 0.5
    code_type: CENTER_SIZE
  }
}
I0808 16:28:36.476197 16855 layer_factory.hpp:77] Creating layer data
I0808 16:28:36.477265 16855 net.cpp:91] Creating Layer data
I0808 16:28:36.477293 16855 net.cpp:399] data -> data
I0808 16:28:36.477417 16855 net.cpp:399] data -> label
I0808 16:28:36.479009 16861 db_lmdb.cpp:35] Opened lmdb examples/VOC2007/VOC2007_trainval_lmdb
I0808 16:28:36.497473 16855 annotated_data_layer.cpp:52] output data size: 32,3,300,300
I0808 16:28:36.565518 16855 net.cpp:141] Setting up data
I0808 16:28:36.565569 16855 net.cpp:148] Top shape: 32 3 300 300 (8640000)
I0808 16:28:36.565580 16855 net.cpp:148] Top shape: 1 1 1 8 (8)
I0808 16:28:36.565587 16855 net.cpp:156] Memory required for data: 34560032
I0808 16:28:36.565603 16855 layer_factory.hpp:77] Creating layer data_data_0_split
I0808 16:28:36.565623 16855 net.cpp:91] Creating Layer data_data_0_split
I0808 16:28:36.565631 16855 net.cpp:425] data_data_0_split <- data
I0808 16:28:36.565656 16855 net.cpp:399] data_data_0_split -> data_data_0_split_0
I0808 16:28:36.565676 16855 net.cpp:399] data_data_0_split -> data_data_0_split_1
I0808 16:28:36.565687 16855 net.cpp:399] data_data_0_split -> data_data_0_split_2
I0808 16:28:36.565696 16855 net.cpp:399] data_data_0_split -> data_data_0_split_3
I0808 16:28:36.565704 16855 net.cpp:399] data_data_0_split -> data_data_0_split_4
I0808 16:28:36.565712 16855 net.cpp:399] data_data_0_split -> data_data_0_split_5
I0808 16:28:36.565719 16855 net.cpp:399] data_data_0_split -> data_data_0_split_6
I0808 16:28:36.565839 16855 net.cpp:141] Setting up data_data_0_split
I0808 16:28:36.565851 16855 net.cpp:148] Top shape: 32 3 300 300 (8640000)
I0808 16:28:36.565857 16855 net.cpp:148] Top shape: 32 3 300 300 (8640000)
I0808 16:28:36.565865 16855 net.cpp:148] Top shape: 32 3 300 300 (8640000)
I0808 16:28:36.565871 16855 net.cpp:148] Top shape: 32 3 300 300 (8640000)
I0808 16:28:36.565876 16855 net.cpp:148] Top shape: 32 3 300 300 (8640000)
I0808 16:28:36.565882 16855 net.cpp:148] Top shape: 32 3 300 300 (8640000)
I0808 16:28:36.565891 16855 net.cpp:148] Top shape: 32 3 300 300 (8640000)
I0808 16:28:36.565897 16855 net.cpp:156] Memory required for data: 276480032
I0808 16:28:36.565903 16855 layer_factory.hpp:77] Creating layer conv1_1
I0808 16:28:36.565949 16855 net.cpp:91] Creating Layer conv1_1
I0808 16:28:36.565956 16855 net.cpp:425] conv1_1 <- data_data_0_split_0
I0808 16:28:36.565965 16855 net.cpp:399] conv1_1 -> conv1_1
I0808 16:28:36.785111 16855 net.cpp:141] Setting up conv1_1
I0808 16:28:36.785151 16855 net.cpp:148] Top shape: 32 64 300 300 (184320000)
I0808 16:28:36.785158 16855 net.cpp:156] Memory required for data: 1013760032
I0808 16:28:36.785183 16855 layer_factory.hpp:77] Creating layer relu1_1
I0808 16:28:36.785200 16855 net.cpp:91] Creating Layer relu1_1
I0808 16:28:36.785208 16855 net.cpp:425] relu1_1 <- conv1_1
I0808 16:28:36.785218 16855 net.cpp:386] relu1_1 -> conv1_1 (in-place)
I0808 16:28:36.785573 16855 net.cpp:141] Setting up relu1_1
I0808 16:28:36.785591 16855 net.cpp:148] Top shape: 32 64 300 300 (184320000)
I0808 16:28:36.785598 16855 net.cpp:156] Memory required for data: 1751040032
I0808 16:28:36.785604 16855 layer_factory.hpp:77] Creating layer conv1_2
I0808 16:28:36.785624 16855 net.cpp:91] Creating Layer conv1_2
I0808 16:28:36.785629 16855 net.cpp:425] conv1_2 <- conv1_1
I0808 16:28:36.785640 16855 net.cpp:399] conv1_2 -> conv1_2
I0808 16:28:36.789386 16855 net.cpp:141] Setting up conv1_2
I0808 16:28:36.789436 16855 net.cpp:148] Top shape: 32 64 300 300 (184320000)
I0808 16:28:36.789449 16855 net.cpp:156] Memory required for data: 2488320032
I0808 16:28:36.789479 16855 layer_factory.hpp:77] Creating layer relu1_2
I0808 16:28:36.789502 16855 net.cpp:91] Creating Layer relu1_2
I0808 16:28:36.789515 16855 net.cpp:425] relu1_2 <- conv1_2
I0808 16:28:36.789530 16855 net.cpp:386] relu1_2 -> conv1_2 (in-place)
I0808 16:28:36.790120 16855 net.cpp:141] Setting up relu1_2
I0808 16:28:36.790151 16855 net.cpp:148] Top shape: 32 64 300 300 (184320000)
I0808 16:28:36.790161 16855 net.cpp:156] Memory required for data: 3225600032
I0808 16:28:36.790172 16855 layer_factory.hpp:77] Creating layer pool1
I0808 16:28:36.790199 16855 net.cpp:91] Creating Layer pool1
I0808 16:28:36.790213 16855 net.cpp:425] pool1 <- conv1_2
I0808 16:28:36.790230 16855 net.cpp:399] pool1 -> pool1
I0808 16:28:36.790346 16855 net.cpp:141] Setting up pool1
I0808 16:28:36.790366 16855 net.cpp:148] Top shape: 32 64 150 150 (46080000)
I0808 16:28:36.790375 16855 net.cpp:156] Memory required for data: 3409920032
I0808 16:28:36.790385 16855 layer_factory.hpp:77] Creating layer conv2_1
I0808 16:28:36.790412 16855 net.cpp:91] Creating Layer conv2_1
I0808 16:28:36.790423 16855 net.cpp:425] conv2_1 <- pool1
I0808 16:28:36.790441 16855 net.cpp:399] conv2_1 -> conv2_1
I0808 16:28:36.793659 16855 net.cpp:141] Setting up conv2_1
I0808 16:28:36.793694 16855 net.cpp:148] Top shape: 32 128 150 150 (92160000)
I0808 16:28:36.793704 16855 net.cpp:156] Memory required for data: 3778560032
I0808 16:28:36.793728 16855 layer_factory.hpp:77] Creating layer relu2_1
I0808 16:28:36.793756 16855 net.cpp:91] Creating Layer relu2_1
I0808 16:28:36.793766 16855 net.cpp:425] relu2_1 <- conv2_1
I0808 16:28:36.793781 16855 net.cpp:386] relu2_1 -> conv2_1 (in-place)
I0808 16:28:36.794211 16855 net.cpp:141] Setting up relu2_1
I0808 16:28:36.794239 16855 net.cpp:148] Top shape: 32 128 150 150 (92160000)
I0808 16:28:36.794248 16855 net.cpp:156] Memory required for data: 4147200032
I0808 16:28:36.794258 16855 layer_factory.hpp:77] Creating layer conv2_2
I0808 16:28:36.794281 16855 net.cpp:91] Creating Layer conv2_2
I0808 16:28:36.794291 16855 net.cpp:425] conv2_2 <- conv2_1
I0808 16:28:36.794315 16855 net.cpp:399] conv2_2 -> conv2_2
I0808 16:28:36.797240 16855 net.cpp:141] Setting up conv2_2
I0808 16:28:36.797261 16855 net.cpp:148] Top shape: 32 128 150 150 (92160000)
I0808 16:28:36.797267 16855 net.cpp:156] Memory required for data: 4515840032
I0808 16:28:36.797278 16855 layer_factory.hpp:77] Creating layer relu2_2
I0808 16:28:36.797287 16855 net.cpp:91] Creating Layer relu2_2
I0808 16:28:36.797293 16855 net.cpp:425] relu2_2 <- conv2_2
I0808 16:28:36.797302 16855 net.cpp:386] relu2_2 -> conv2_2 (in-place)
I0808 16:28:36.797638 16855 net.cpp:141] Setting up relu2_2
I0808 16:28:36.797657 16855 net.cpp:148] Top shape: 32 128 150 150 (92160000)
I0808 16:28:36.797678 16855 net.cpp:156] Memory required for data: 4884480032
I0808 16:28:36.797685 16855 layer_factory.hpp:77] Creating layer pool2
I0808 16:28:36.797696 16855 net.cpp:91] Creating Layer pool2
I0808 16:28:36.797706 16855 net.cpp:425] pool2 <- conv2_2
I0808 16:28:36.797715 16855 net.cpp:399] pool2 -> pool2
I0808 16:28:36.797770 16855 net.cpp:141] Setting up pool2
I0808 16:28:36.797781 16855 net.cpp:148] Top shape: 32 128 75 75 (23040000)
I0808 16:28:36.797786 16855 net.cpp:156] Memory required for data: 4976640032
I0808 16:28:36.797792 16855 layer_factory.hpp:77] Creating layer conv3_1
I0808 16:28:36.797806 16855 net.cpp:91] Creating Layer conv3_1
I0808 16:28:36.797814 16855 net.cpp:425] conv3_1 <- pool2
I0808 16:28:36.797824 16855 net.cpp:399] conv3_1 -> conv3_1
I0808 16:28:36.802287 16855 net.cpp:141] Setting up conv3_1
I0808 16:28:36.802310 16855 net.cpp:148] Top shape: 32 256 75 75 (46080000)
I0808 16:28:36.802316 16855 net.cpp:156] Memory required for data: 5160960032
I0808 16:28:36.802330 16855 layer_factory.hpp:77] Creating layer relu3_1
I0808 16:28:36.802340 16855 net.cpp:91] Creating Layer relu3_1
I0808 16:28:36.802345 16855 net.cpp:425] relu3_1 <- conv3_1
I0808 16:28:36.802355 16855 net.cpp:386] relu3_1 -> conv3_1 (in-place)
I0808 16:28:36.802693 16855 net.cpp:141] Setting up relu3_1
I0808 16:28:36.802711 16855 net.cpp:148] Top shape: 32 256 75 75 (46080000)
I0808 16:28:36.802716 16855 net.cpp:156] Memory required for data: 5345280032
I0808 16:28:36.802721 16855 layer_factory.hpp:77] Creating layer conv3_2
I0808 16:28:36.802736 16855 net.cpp:91] Creating Layer conv3_2
I0808 16:28:36.802742 16855 net.cpp:425] conv3_2 <- conv3_1
I0808 16:28:36.802753 16855 net.cpp:399] conv3_2 -> conv3_2
I0808 16:28:36.809139 16855 net.cpp:141] Setting up conv3_2
I0808 16:28:36.809162 16855 net.cpp:148] Top shape: 32 256 75 75 (46080000)
I0808 16:28:36.809168 16855 net.cpp:156] Memory required for data: 5529600032
I0808 16:28:36.809178 16855 layer_factory.hpp:77] Creating layer relu3_2
I0808 16:28:36.809187 16855 net.cpp:91] Creating Layer relu3_2
I0808 16:28:36.809193 16855 net.cpp:425] relu3_2 <- conv3_2
I0808 16:28:36.809201 16855 net.cpp:386] relu3_2 -> conv3_2 (in-place)
I0808 16:28:36.809407 16855 net.cpp:141] Setting up relu3_2
I0808 16:28:36.809420 16855 net.cpp:148] Top shape: 32 256 75 75 (46080000)
I0808 16:28:36.809427 16855 net.cpp:156] Memory required for data: 5713920032
I0808 16:28:36.809432 16855 layer_factory.hpp:77] Creating layer conv3_3
I0808 16:28:36.809448 16855 net.cpp:91] Creating Layer conv3_3
I0808 16:28:36.809456 16855 net.cpp:425] conv3_3 <- conv3_2
I0808 16:28:36.809468 16855 net.cpp:399] conv3_3 -> conv3_3
I0808 16:28:36.815870 16855 net.cpp:141] Setting up conv3_3
I0808 16:28:36.815891 16855 net.cpp:148] Top shape: 32 256 75 75 (46080000)
I0808 16:28:36.815897 16855 net.cpp:156] Memory required for data: 5898240032
I0808 16:28:36.815907 16855 layer_factory.hpp:77] Creating layer relu3_3
I0808 16:28:36.815918 16855 net.cpp:91] Creating Layer relu3_3
I0808 16:28:36.815924 16855 net.cpp:425] relu3_3 <- conv3_3
I0808 16:28:36.815932 16855 net.cpp:386] relu3_3 -> conv3_3 (in-place)
I0808 16:28:36.816272 16855 net.cpp:141] Setting up relu3_3
I0808 16:28:36.816289 16855 net.cpp:148] Top shape: 32 256 75 75 (46080000)
I0808 16:28:36.816295 16855 net.cpp:156] Memory required for data: 6082560032
I0808 16:28:36.816301 16855 layer_factory.hpp:77] Creating layer pool3
I0808 16:28:36.816313 16855 net.cpp:91] Creating Layer pool3
I0808 16:28:36.816318 16855 net.cpp:425] pool3 <- conv3_3
I0808 16:28:36.816329 16855 net.cpp:399] pool3 -> pool3
I0808 16:28:36.816383 16855 net.cpp:141] Setting up pool3
I0808 16:28:36.816395 16855 net.cpp:148] Top shape: 32 256 38 38 (11829248)
I0808 16:28:36.816400 16855 net.cpp:156] Memory required for data: 6129877024
I0808 16:28:36.816404 16855 layer_factory.hpp:77] Creating layer conv4_1
I0808 16:28:36.816417 16855 net.cpp:91] Creating Layer conv4_1
I0808 16:28:36.816426 16855 net.cpp:425] conv4_1 <- pool3
I0808 16:28:36.816454 16855 net.cpp:399] conv4_1 -> conv4_1
I0808 16:28:36.828469 16855 net.cpp:141] Setting up conv4_1
I0808 16:28:36.828490 16855 net.cpp:148] Top shape: 32 512 38 38 (23658496)
I0808 16:28:36.828496 16855 net.cpp:156] Memory required for data: 6224511008
I0808 16:28:36.828506 16855 layer_factory.hpp:77] Creating layer relu4_1
I0808 16:28:36.828516 16855 net.cpp:91] Creating Layer relu4_1
I0808 16:28:36.828524 16855 net.cpp:425] relu4_1 <- conv4_1
I0808 16:28:36.828532 16855 net.cpp:386] relu4_1 -> conv4_1 (in-place)
I0808 16:28:36.828907 16855 net.cpp:141] Setting up relu4_1
I0808 16:28:36.828922 16855 net.cpp:148] Top shape: 32 512 38 38 (23658496)
I0808 16:28:36.828930 16855 net.cpp:156] Memory required for data: 6319144992
I0808 16:28:36.828936 16855 layer_factory.hpp:77] Creating layer conv4_2
I0808 16:28:36.828953 16855 net.cpp:91] Creating Layer conv4_2
I0808 16:28:36.828960 16855 net.cpp:425] conv4_2 <- conv4_1
I0808 16:28:36.828969 16855 net.cpp:399] conv4_2 -> conv4_2
I0808 16:28:36.850834 16855 net.cpp:141] Setting up conv4_2
I0808 16:28:36.850867 16855 net.cpp:148] Top shape: 32 512 38 38 (23658496)
I0808 16:28:36.850872 16855 net.cpp:156] Memory required for data: 6413778976
I0808 16:28:36.850893 16855 layer_factory.hpp:77] Creating layer relu4_2
I0808 16:28:36.850906 16855 net.cpp:91] Creating Layer relu4_2
I0808 16:28:36.850914 16855 net.cpp:425] relu4_2 <- conv4_2
I0808 16:28:36.850924 16855 net.cpp:386] relu4_2 -> conv4_2 (in-place)
I0808 16:28:36.851136 16855 net.cpp:141] Setting up relu4_2
I0808 16:28:36.851150 16855 net.cpp:148] Top shape: 32 512 38 38 (23658496)
I0808 16:28:36.851156 16855 net.cpp:156] Memory required for data: 6508412960
I0808 16:28:36.851208 16855 layer_factory.hpp:77] Creating layer conv4_3
I0808 16:28:36.851227 16855 net.cpp:91] Creating Layer conv4_3
I0808 16:28:36.851238 16855 net.cpp:425] conv4_3 <- conv4_2
I0808 16:28:36.851246 16855 net.cpp:399] conv4_3 -> conv4_3
I0808 16:28:36.872932 16855 net.cpp:141] Setting up conv4_3
I0808 16:28:36.872961 16855 net.cpp:148] Top shape: 32 512 38 38 (23658496)
I0808 16:28:36.872968 16855 net.cpp:156] Memory required for data: 6603046944
I0808 16:28:36.872979 16855 layer_factory.hpp:77] Creating layer relu4_3
I0808 16:28:36.872992 16855 net.cpp:91] Creating Layer relu4_3
I0808 16:28:36.872997 16855 net.cpp:425] relu4_3 <- conv4_3
I0808 16:28:36.873005 16855 net.cpp:386] relu4_3 -> conv4_3 (in-place)
I0808 16:28:36.873354 16855 net.cpp:141] Setting up relu4_3
I0808 16:28:36.873371 16855 net.cpp:148] Top shape: 32 512 38 38 (23658496)
I0808 16:28:36.873378 16855 net.cpp:156] Memory required for data: 6697680928
I0808 16:28:36.873383 16855 layer_factory.hpp:77] Creating layer conv4_3_relu4_3_0_split
I0808 16:28:36.873394 16855 net.cpp:91] Creating Layer conv4_3_relu4_3_0_split
I0808 16:28:36.873399 16855 net.cpp:425] conv4_3_relu4_3_0_split <- conv4_3
I0808 16:28:36.873410 16855 net.cpp:399] conv4_3_relu4_3_0_split -> conv4_3_relu4_3_0_split_0
I0808 16:28:36.873420 16855 net.cpp:399] conv4_3_relu4_3_0_split -> conv4_3_relu4_3_0_split_1
I0808 16:28:36.873474 16855 net.cpp:141] Setting up conv4_3_relu4_3_0_split
I0808 16:28:36.873486 16855 net.cpp:148] Top shape: 32 512 38 38 (23658496)
I0808 16:28:36.873492 16855 net.cpp:148] Top shape: 32 512 38 38 (23658496)
I0808 16:28:36.873497 16855 net.cpp:156] Memory required for data: 6886948896
I0808 16:28:36.873502 16855 layer_factory.hpp:77] Creating layer pool4
I0808 16:28:36.873513 16855 net.cpp:91] Creating Layer pool4
I0808 16:28:36.873522 16855 net.cpp:425] pool4 <- conv4_3_relu4_3_0_split_0
I0808 16:28:36.873533 16855 net.cpp:399] pool4 -> pool4
I0808 16:28:36.873579 16855 net.cpp:141] Setting up pool4
I0808 16:28:36.873591 16855 net.cpp:148] Top shape: 32 512 19 19 (5914624)
I0808 16:28:36.873596 16855 net.cpp:156] Memory required for data: 6910607392
I0808 16:28:36.873601 16855 layer_factory.hpp:77] Creating layer conv5_1
I0808 16:28:36.873616 16855 net.cpp:91] Creating Layer conv5_1
I0808 16:28:36.873622 16855 net.cpp:425] conv5_1 <- pool4
I0808 16:28:36.873636 16855 net.cpp:399] conv5_1 -> conv5_1
I0808 16:28:36.898639 16855 net.cpp:141] Setting up conv5_1
I0808 16:28:36.898676 16855 net.cpp:148] Top shape: 32 512 19 19 (5914624)
I0808 16:28:36.898684 16855 net.cpp:156] Memory required for data: 6934265888
I0808 16:28:36.898696 16855 layer_factory.hpp:77] Creating layer relu5_1
I0808 16:28:36.898712 16855 net.cpp:91] Creating Layer relu5_1
I0808 16:28:36.898720 16855 net.cpp:425] relu5_1 <- conv5_1
I0808 16:28:36.898733 16855 net.cpp:386] relu5_1 -> conv5_1 (in-place)
I0808 16:28:36.899097 16855 net.cpp:141] Setting up relu5_1
I0808 16:28:36.899114 16855 net.cpp:148] Top shape: 32 512 19 19 (5914624)
I0808 16:28:36.899121 16855 net.cpp:156] Memory required for data: 6957924384
I0808 16:28:36.899127 16855 layer_factory.hpp:77] Creating layer conv5_2
I0808 16:28:36.899145 16855 net.cpp:91] Creating Layer conv5_2
I0808 16:28:36.899152 16855 net.cpp:425] conv5_2 <- conv5_1
I0808 16:28:36.899161 16855 net.cpp:399] conv5_2 -> conv5_2
I0808 16:28:36.923529 16855 net.cpp:141] Setting up conv5_2
I0808 16:28:36.923563 16855 net.cpp:148] Top shape: 32 512 19 19 (5914624)
I0808 16:28:36.923569 16855 net.cpp:156] Memory required for data: 6981582880
I0808 16:28:36.923581 16855 layer_factory.hpp:77] Creating layer relu5_2
I0808 16:28:36.923600 16855 net.cpp:91] Creating Layer relu5_2
I0808 16:28:36.923607 16855 net.cpp:425] relu5_2 <- conv5_2
I0808 16:28:36.923616 16855 net.cpp:386] relu5_2 -> conv5_2 (in-place)
I0808 16:28:36.923830 16855 net.cpp:141] Setting up relu5_2
I0808 16:28:36.923846 16855 net.cpp:148] Top shape: 32 512 19 19 (5914624)
I0808 16:28:36.923851 16855 net.cpp:156] Memory required for data: 7005241376
I0808 16:28:36.923856 16855 layer_factory.hpp:77] Creating layer conv5_3
I0808 16:28:36.923872 16855 net.cpp:91] Creating Layer conv5_3
I0808 16:28:36.923882 16855 net.cpp:425] conv5_3 <- conv5_2
I0808 16:28:36.923893 16855 net.cpp:399] conv5_3 -> conv5_3
I0808 16:28:36.945612 16855 net.cpp:141] Setting up conv5_3
I0808 16:28:36.945642 16855 net.cpp:148] Top shape: 32 512 19 19 (5914624)
I0808 16:28:36.945649 16855 net.cpp:156] Memory required for data: 7028899872
I0808 16:28:36.945660 16855 layer_factory.hpp:77] Creating layer relu5_3
I0808 16:28:36.945682 16855 net.cpp:91] Creating Layer relu5_3
I0808 16:28:36.945688 16855 net.cpp:425] relu5_3 <- conv5_3
I0808 16:28:36.945698 16855 net.cpp:386] relu5_3 -> conv5_3 (in-place)
I0808 16:28:36.946086 16855 net.cpp:141] Setting up relu5_3
I0808 16:28:36.946105 16855 net.cpp:148] Top shape: 32 512 19 19 (5914624)
I0808 16:28:36.946110 16855 net.cpp:156] Memory required for data: 7052558368
I0808 16:28:36.946117 16855 layer_factory.hpp:77] Creating layer pool5
I0808 16:28:36.946128 16855 net.cpp:91] Creating Layer pool5
I0808 16:28:36.946135 16855 net.cpp:425] pool5 <- conv5_3
I0808 16:28:36.946144 16855 net.cpp:399] pool5 -> pool5
I0808 16:28:36.946205 16855 net.cpp:141] Setting up pool5
I0808 16:28:36.946216 16855 net.cpp:148] Top shape: 32 512 19 19 (5914624)
I0808 16:28:36.946223 16855 net.cpp:156] Memory required for data: 7076216864
I0808 16:28:36.946228 16855 layer_factory.hpp:77] Creating layer fc6
I0808 16:28:36.946250 16855 net.cpp:91] Creating Layer fc6
I0808 16:28:36.946259 16855 net.cpp:425] fc6 <- pool5
I0808 16:28:36.946267 16855 net.cpp:399] fc6 -> fc6
I0808 16:28:36.989466 16855 net.cpp:141] Setting up fc6
I0808 16:28:36.989509 16855 net.cpp:148] Top shape: 32 1024 19 19 (11829248)
I0808 16:28:36.989517 16855 net.cpp:156] Memory required for data: 7123533856
I0808 16:28:36.989529 16855 layer_factory.hpp:77] Creating layer relu6
I0808 16:28:36.989545 16855 net.cpp:91] Creating Layer relu6
I0808 16:28:36.989553 16855 net.cpp:425] relu6 <- fc6
I0808 16:28:36.989562 16855 net.cpp:386] relu6 -> fc6 (in-place)
I0808 16:28:36.989871 16855 net.cpp:141] Setting up relu6
I0808 16:28:36.989884 16855 net.cpp:148] Top shape: 32 1024 19 19 (11829248)
I0808 16:28:36.989891 16855 net.cpp:156] Memory required for data: 7170850848
I0808 16:28:36.989897 16855 layer_factory.hpp:77] Creating layer fc7
I0808 16:28:36.989912 16855 net.cpp:91] Creating Layer fc7
I0808 16:28:36.989941 16855 net.cpp:425] fc7 <- fc6
I0808 16:28:36.989954 16855 net.cpp:399] fc7 -> fc7
I0808 16:28:37.000437 16855 net.cpp:141] Setting up fc7
I0808 16:28:37.000458 16855 net.cpp:148] Top shape: 32 1024 19 19 (11829248)
I0808 16:28:37.000464 16855 net.cpp:156] Memory required for data: 7218167840
I0808 16:28:37.000474 16855 layer_factory.hpp:77] Creating layer relu7
I0808 16:28:37.000483 16855 net.cpp:91] Creating Layer relu7
I0808 16:28:37.000490 16855 net.cpp:425] relu7 <- fc7
I0808 16:28:37.000501 16855 net.cpp:386] relu7 -> fc7 (in-place)
I0808 16:28:37.000847 16855 net.cpp:141] Setting up relu7
I0808 16:28:37.000864 16855 net.cpp:148] Top shape: 32 1024 19 19 (11829248)
I0808 16:28:37.000870 16855 net.cpp:156] Memory required for data: 7265484832
I0808 16:28:37.000876 16855 layer_factory.hpp:77] Creating layer fc7_relu7_0_split
I0808 16:28:37.000886 16855 net.cpp:91] Creating Layer fc7_relu7_0_split
I0808 16:28:37.000892 16855 net.cpp:425] fc7_relu7_0_split <- fc7
I0808 16:28:37.000907 16855 net.cpp:399] fc7_relu7_0_split -> fc7_relu7_0_split_0
I0808 16:28:37.000918 16855 net.cpp:399] fc7_relu7_0_split -> fc7_relu7_0_split_1
I0808 16:28:37.000934 16855 net.cpp:399] fc7_relu7_0_split -> fc7_relu7_0_split_2
I0808 16:28:37.000944 16855 net.cpp:399] fc7_relu7_0_split -> fc7_relu7_0_split_3
I0808 16:28:37.001029 16855 net.cpp:141] Setting up fc7_relu7_0_split
I0808 16:28:37.001041 16855 net.cpp:148] Top shape: 32 1024 19 19 (11829248)
I0808 16:28:37.001049 16855 net.cpp:148] Top shape: 32 1024 19 19 (11829248)
I0808 16:28:37.001055 16855 net.cpp:148] Top shape: 32 1024 19 19 (11829248)
I0808 16:28:37.001060 16855 net.cpp:148] Top shape: 32 1024 19 19 (11829248)
I0808 16:28:37.001065 16855 net.cpp:156] Memory required for data: 7454752800
I0808 16:28:37.001070 16855 layer_factory.hpp:77] Creating layer conv6_1
I0808 16:28:37.001085 16855 net.cpp:91] Creating Layer conv6_1
I0808 16:28:37.001093 16855 net.cpp:425] conv6_1 <- fc7_relu7_0_split_0
I0808 16:28:37.001106 16855 net.cpp:399] conv6_1 -> conv6_1
I0808 16:28:37.004771 16855 net.cpp:141] Setting up conv6_1
I0808 16:28:37.004791 16855 net.cpp:148] Top shape: 32 256 19 19 (2957312)
I0808 16:28:37.004797 16855 net.cpp:156] Memory required for data: 7466582048
I0808 16:28:37.004807 16855 layer_factory.hpp:77] Creating layer conv6_1_relu
I0808 16:28:37.004819 16855 net.cpp:91] Creating Layer conv6_1_relu
I0808 16:28:37.004828 16855 net.cpp:425] conv6_1_relu <- conv6_1
I0808 16:28:37.004837 16855 net.cpp:386] conv6_1_relu -> conv6_1 (in-place)
I0808 16:28:37.005197 16855 net.cpp:141] Setting up conv6_1_relu
I0808 16:28:37.005213 16855 net.cpp:148] Top shape: 32 256 19 19 (2957312)
I0808 16:28:37.005219 16855 net.cpp:156] Memory required for data: 7478411296
I0808 16:28:37.005224 16855 layer_factory.hpp:77] Creating layer conv6_2
I0808 16:28:37.005241 16855 net.cpp:91] Creating Layer conv6_2
I0808 16:28:37.005247 16855 net.cpp:425] conv6_2 <- conv6_1
I0808 16:28:37.005256 16855 net.cpp:399] conv6_2 -> conv6_2
I0808 16:28:37.016767 16855 net.cpp:141] Setting up conv6_2
I0808 16:28:37.016788 16855 net.cpp:148] Top shape: 32 512 10 10 (1638400)
I0808 16:28:37.016794 16855 net.cpp:156] Memory required for data: 7484964896
I0808 16:28:37.016814 16855 layer_factory.hpp:77] Creating layer conv6_2_relu
I0808 16:28:37.016824 16855 net.cpp:91] Creating Layer conv6_2_relu
I0808 16:28:37.016829 16855 net.cpp:425] conv6_2_relu <- conv6_2
I0808 16:28:37.016839 16855 net.cpp:386] conv6_2_relu -> conv6_2 (in-place)
I0808 16:28:37.017043 16855 net.cpp:141] Setting up conv6_2_relu
I0808 16:28:37.017057 16855 net.cpp:148] Top shape: 32 512 10 10 (1638400)
I0808 16:28:37.017062 16855 net.cpp:156] Memory required for data: 7491518496
I0808 16:28:37.017068 16855 layer_factory.hpp:77] Creating layer conv6_2_conv6_2_relu_0_split
I0808 16:28:37.017078 16855 net.cpp:91] Creating Layer conv6_2_conv6_2_relu_0_split
I0808 16:28:37.017086 16855 net.cpp:425] conv6_2_conv6_2_relu_0_split <- conv6_2
I0808 16:28:37.017096 16855 net.cpp:399] conv6_2_conv6_2_relu_0_split -> conv6_2_conv6_2_relu_0_split_0
I0808 16:28:37.017122 16855 net.cpp:399] conv6_2_conv6_2_relu_0_split -> conv6_2_conv6_2_relu_0_split_1
I0808 16:28:37.017132 16855 net.cpp:399] conv6_2_conv6_2_relu_0_split -> conv6_2_conv6_2_relu_0_split_2
I0808 16:28:37.017140 16855 net.cpp:399] conv6_2_conv6_2_relu_0_split -> conv6_2_conv6_2_relu_0_split_3
I0808 16:28:37.017225 16855 net.cpp:141] Setting up conv6_2_conv6_2_relu_0_split
I0808 16:28:37.017235 16855 net.cpp:148] Top shape: 32 512 10 10 (1638400)
I0808 16:28:37.017241 16855 net.cpp:148] Top shape: 32 512 10 10 (1638400)
I0808 16:28:37.017247 16855 net.cpp:148] Top shape: 32 512 10 10 (1638400)
I0808 16:28:37.017253 16855 net.cpp:148] Top shape: 32 512 10 10 (1638400)
I0808 16:28:37.017257 16855 net.cpp:156] Memory required for data: 7517732896
I0808 16:28:37.017263 16855 layer_factory.hpp:77] Creating layer conv7_1
I0808 16:28:37.017277 16855 net.cpp:91] Creating Layer conv7_1
I0808 16:28:37.017285 16855 net.cpp:425] conv7_1 <- conv6_2_conv6_2_relu_0_split_0
I0808 16:28:37.017297 16855 net.cpp:399] conv7_1 -> conv7_1
I0808 16:28:37.018996 16855 net.cpp:141] Setting up conv7_1
I0808 16:28:37.019014 16855 net.cpp:148] Top shape: 32 128 10 10 (409600)
I0808 16:28:37.019021 16855 net.cpp:156] Memory required for data: 7519371296
I0808 16:28:37.019029 16855 layer_factory.hpp:77] Creating layer conv7_1_relu
I0808 16:28:37.019037 16855 net.cpp:91] Creating Layer conv7_1_relu
I0808 16:28:37.019043 16855 net.cpp:425] conv7_1_relu <- conv7_1
I0808 16:28:37.019053 16855 net.cpp:386] conv7_1_relu -> conv7_1 (in-place)
I0808 16:28:37.019392 16855 net.cpp:141] Setting up conv7_1_relu
I0808 16:28:37.019408 16855 net.cpp:148] Top shape: 32 128 10 10 (409600)
I0808 16:28:37.019414 16855 net.cpp:156] Memory required for data: 7521009696
I0808 16:28:37.019419 16855 layer_factory.hpp:77] Creating layer conv7_2
I0808 16:28:37.019434 16855 net.cpp:91] Creating Layer conv7_2
I0808 16:28:37.019441 16855 net.cpp:425] conv7_2 <- conv7_1
I0808 16:28:37.019453 16855 net.cpp:399] conv7_2 -> conv7_2
I0808 16:28:37.023176 16855 net.cpp:141] Setting up conv7_2
I0808 16:28:37.023195 16855 net.cpp:148] Top shape: 32 256 5 5 (204800)
I0808 16:28:37.023201 16855 net.cpp:156] Memory required for data: 7521828896
I0808 16:28:37.023211 16855 layer_factory.hpp:77] Creating layer conv7_2_relu
I0808 16:28:37.023221 16855 net.cpp:91] Creating Layer conv7_2_relu
I0808 16:28:37.023227 16855 net.cpp:425] conv7_2_relu <- conv7_2
I0808 16:28:37.023236 16855 net.cpp:386] conv7_2_relu -> conv7_2 (in-place)
I0808 16:28:37.023586 16855 net.cpp:141] Setting up conv7_2_relu
I0808 16:28:37.023602 16855 net.cpp:148] Top shape: 32 256 5 5 (204800)
I0808 16:28:37.023608 16855 net.cpp:156] Memory required for data: 7522648096
I0808 16:28:37.023614 16855 layer_factory.hpp:77] Creating layer conv7_2_conv7_2_relu_0_split
I0808 16:28:37.023622 16855 net.cpp:91] Creating Layer conv7_2_conv7_2_relu_0_split
I0808 16:28:37.023628 16855 net.cpp:425] conv7_2_conv7_2_relu_0_split <- conv7_2
I0808 16:28:37.023638 16855 net.cpp:399] conv7_2_conv7_2_relu_0_split -> conv7_2_conv7_2_relu_0_split_0
I0808 16:28:37.023648 16855 net.cpp:399] conv7_2_conv7_2_relu_0_split -> conv7_2_conv7_2_relu_0_split_1
I0808 16:28:37.023658 16855 net.cpp:399] conv7_2_conv7_2_relu_0_split -> conv7_2_conv7_2_relu_0_split_2
I0808 16:28:37.023671 16855 net.cpp:399] conv7_2_conv7_2_relu_0_split -> conv7_2_conv7_2_relu_0_split_3
I0808 16:28:37.023757 16855 net.cpp:141] Setting up conv7_2_conv7_2_relu_0_split
I0808 16:28:37.023769 16855 net.cpp:148] Top shape: 32 256 5 5 (204800)
I0808 16:28:37.023777 16855 net.cpp:148] Top shape: 32 256 5 5 (204800)
I0808 16:28:37.023782 16855 net.cpp:148] Top shape: 32 256 5 5 (204800)
I0808 16:28:37.023788 16855 net.cpp:148] Top shape: 32 256 5 5 (204800)
I0808 16:28:37.023792 16855 net.cpp:156] Memory required for data: 7525924896
I0808 16:28:37.023798 16855 layer_factory.hpp:77] Creating layer conv8_1
I0808 16:28:37.023813 16855 net.cpp:91] Creating Layer conv8_1
I0808 16:28:37.023820 16855 net.cpp:425] conv8_1 <- conv7_2_conv7_2_relu_0_split_0
I0808 16:28:37.023845 16855 net.cpp:399] conv8_1 -> conv8_1
I0808 16:28:37.025297 16855 net.cpp:141] Setting up conv8_1
I0808 16:28:37.025316 16855 net.cpp:148] Top shape: 32 128 5 5 (102400)
I0808 16:28:37.025322 16855 net.cpp:156] Memory required for data: 7526334496
I0808 16:28:37.025331 16855 layer_factory.hpp:77] Creating layer conv8_1_relu
I0808 16:28:37.025341 16855 net.cpp:91] Creating Layer conv8_1_relu
I0808 16:28:37.025348 16855 net.cpp:425] conv8_1_relu <- conv8_1
I0808 16:28:37.025355 16855 net.cpp:386] conv8_1_relu -> conv8_1 (in-place)
I0808 16:28:37.025557 16855 net.cpp:141] Setting up conv8_1_relu
I0808 16:28:37.025571 16855 net.cpp:148] Top shape: 32 128 5 5 (102400)
I0808 16:28:37.025578 16855 net.cpp:156] Memory required for data: 7526744096
I0808 16:28:37.025583 16855 layer_factory.hpp:77] Creating layer conv8_2
I0808 16:28:37.025598 16855 net.cpp:91] Creating Layer conv8_2
I0808 16:28:37.025605 16855 net.cpp:425] conv8_2 <- conv8_1
I0808 16:28:37.025619 16855 net.cpp:399] conv8_2 -> conv8_2
I0808 16:28:37.029485 16855 net.cpp:141] Setting up conv8_2
I0808 16:28:37.029505 16855 net.cpp:148] Top shape: 32 256 3 3 (73728)
I0808 16:28:37.029511 16855 net.cpp:156] Memory required for data: 7527039008
I0808 16:28:37.029520 16855 layer_factory.hpp:77] Creating layer conv8_2_relu
I0808 16:28:37.029533 16855 net.cpp:91] Creating Layer conv8_2_relu
I0808 16:28:37.029541 16855 net.cpp:425] conv8_2_relu <- conv8_2
I0808 16:28:37.029549 16855 net.cpp:386] conv8_2_relu -> conv8_2 (in-place)
I0808 16:28:37.029884 16855 net.cpp:141] Setting up conv8_2_relu
I0808 16:28:37.029901 16855 net.cpp:148] Top shape: 32 256 3 3 (73728)
I0808 16:28:37.029906 16855 net.cpp:156] Memory required for data: 7527333920
I0808 16:28:37.029912 16855 layer_factory.hpp:77] Creating layer conv8_2_conv8_2_relu_0_split
I0808 16:28:37.029922 16855 net.cpp:91] Creating Layer conv8_2_conv8_2_relu_0_split
I0808 16:28:37.029927 16855 net.cpp:425] conv8_2_conv8_2_relu_0_split <- conv8_2
I0808 16:28:37.029937 16855 net.cpp:399] conv8_2_conv8_2_relu_0_split -> conv8_2_conv8_2_relu_0_split_0
I0808 16:28:37.029947 16855 net.cpp:399] conv8_2_conv8_2_relu_0_split -> conv8_2_conv8_2_relu_0_split_1
I0808 16:28:37.029955 16855 net.cpp:399] conv8_2_conv8_2_relu_0_split -> conv8_2_conv8_2_relu_0_split_2
I0808 16:28:37.029969 16855 net.cpp:399] conv8_2_conv8_2_relu_0_split -> conv8_2_conv8_2_relu_0_split_3
I0808 16:28:37.030055 16855 net.cpp:141] Setting up conv8_2_conv8_2_relu_0_split
I0808 16:28:37.030066 16855 net.cpp:148] Top shape: 32 256 3 3 (73728)
I0808 16:28:37.030071 16855 net.cpp:148] Top shape: 32 256 3 3 (73728)
I0808 16:28:37.030089 16855 net.cpp:148] Top shape: 32 256 3 3 (73728)
I0808 16:28:37.030094 16855 net.cpp:148] Top shape: 32 256 3 3 (73728)
I0808 16:28:37.030099 16855 net.cpp:156] Memory required for data: 7528513568
I0808 16:28:37.030105 16855 layer_factory.hpp:77] Creating layer pool6
I0808 16:28:37.030114 16855 net.cpp:91] Creating Layer pool6
I0808 16:28:37.030120 16855 net.cpp:425] pool6 <- conv8_2_conv8_2_relu_0_split_0
I0808 16:28:37.030131 16855 net.cpp:399] pool6 -> pool6
I0808 16:28:37.030377 16855 net.cpp:141] Setting up pool6
I0808 16:28:37.030391 16855 net.cpp:148] Top shape: 32 256 1 1 (8192)
I0808 16:28:37.030397 16855 net.cpp:156] Memory required for data: 7528546336
I0808 16:28:37.030403 16855 layer_factory.hpp:77] Creating layer pool6_pool6_0_split
I0808 16:28:37.030412 16855 net.cpp:91] Creating Layer pool6_pool6_0_split
I0808 16:28:37.030421 16855 net.cpp:425] pool6_pool6_0_split <- pool6
I0808 16:28:37.030429 16855 net.cpp:399] pool6_pool6_0_split -> pool6_pool6_0_split_0
I0808 16:28:37.030437 16855 net.cpp:399] pool6_pool6_0_split -> pool6_pool6_0_split_1
I0808 16:28:37.030448 16855 net.cpp:399] pool6_pool6_0_split -> pool6_pool6_0_split_2
I0808 16:28:37.030510 16855 net.cpp:141] Setting up pool6_pool6_0_split
I0808 16:28:37.030520 16855 net.cpp:148] Top shape: 32 256 1 1 (8192)
I0808 16:28:37.030527 16855 net.cpp:148] Top shape: 32 256 1 1 (8192)
I0808 16:28:37.030532 16855 net.cpp:148] Top shape: 32 256 1 1 (8192)
I0808 16:28:37.030551 16855 net.cpp:156] Memory required for data: 7528644640
I0808 16:28:37.030557 16855 layer_factory.hpp:77] Creating layer conv4_3_norm
I0808 16:28:37.030572 16855 net.cpp:91] Creating Layer conv4_3_norm
I0808 16:28:37.030580 16855 net.cpp:425] conv4_3_norm <- conv4_3_relu4_3_0_split_1
I0808 16:28:37.030588 16855 net.cpp:399] conv4_3_norm -> conv4_3_norm
I0808 16:28:37.030786 16855 net.cpp:141] Setting up conv4_3_norm
I0808 16:28:37.030798 16855 net.cpp:148] Top shape: 32 512 38 38 (23658496)
I0808 16:28:37.030804 16855 net.cpp:156] Memory required for data: 7623278624
I0808 16:28:37.030812 16855 layer_factory.hpp:77] Creating layer conv4_3_norm_conv4_3_norm_0_split
I0808 16:28:37.030823 16855 net.cpp:91] Creating Layer conv4_3_norm_conv4_3_norm_0_split
I0808 16:28:37.030829 16855 net.cpp:425] conv4_3_norm_conv4_3_norm_0_split <- conv4_3_norm
I0808 16:28:37.030836 16855 net.cpp:399] conv4_3_norm_conv4_3_norm_0_split -> conv4_3_norm_conv4_3_norm_0_split_0
I0808 16:28:37.030845 16855 net.cpp:399] conv4_3_norm_conv4_3_norm_0_split -> conv4_3_norm_conv4_3_norm_0_split_1
I0808 16:28:37.030854 16855 net.cpp:399] conv4_3_norm_conv4_3_norm_0_split -> conv4_3_norm_conv4_3_norm_0_split_2
I0808 16:28:37.030913 16855 net.cpp:141] Setting up conv4_3_norm_conv4_3_norm_0_split
I0808 16:28:37.030922 16855 net.cpp:148] Top shape: 32 512 38 38 (23658496)
I0808 16:28:37.030928 16855 net.cpp:148] Top shape: 32 512 38 38 (23658496)
I0808 16:28:37.030935 16855 net.cpp:148] Top shape: 32 512 38 38 (23658496)
I0808 16:28:37.030939 16855 net.cpp:156] Memory required for data: 7907180576
I0808 16:28:37.030944 16855 layer_factory.hpp:77] Creating layer conv4_3_norm_mbox_loc
I0808 16:28:37.030957 16855 net.cpp:91] Creating Layer conv4_3_norm_mbox_loc
I0808 16:28:37.030966 16855 net.cpp:425] conv4_3_norm_mbox_loc <- conv4_3_norm_conv4_3_norm_0_split_0
I0808 16:28:37.030975 16855 net.cpp:399] conv4_3_norm_mbox_loc -> conv4_3_norm_mbox_loc
I0808 16:28:37.032954 16855 net.cpp:141] Setting up conv4_3_norm_mbox_loc
I0808 16:28:37.032975 16855 net.cpp:148] Top shape: 32 12 38 38 (554496)
I0808 16:28:37.032981 16855 net.cpp:156] Memory required for data: 7909398560
I0808 16:28:37.032990 16855 layer_factory.hpp:77] Creating layer conv4_3_norm_mbox_loc_perm
I0808 16:28:37.033002 16855 net.cpp:91] Creating Layer conv4_3_norm_mbox_loc_perm
I0808 16:28:37.033010 16855 net.cpp:425] conv4_3_norm_mbox_loc_perm <- conv4_3_norm_mbox_loc
I0808 16:28:37.033020 16855 net.cpp:399] conv4_3_norm_mbox_loc_perm -> conv4_3_norm_mbox_loc_perm
I0808 16:28:37.033157 16855 net.cpp:141] Setting up conv4_3_norm_mbox_loc_perm
I0808 16:28:37.033169 16855 net.cpp:148] Top shape: 32 38 38 12 (554496)
I0808 16:28:37.033174 16855 net.cpp:156] Memory required for data: 7911616544
I0808 16:28:37.033181 16855 layer_factory.hpp:77] Creating layer conv4_3_norm_mbox_loc_flat
I0808 16:28:37.033191 16855 net.cpp:91] Creating Layer conv4_3_norm_mbox_loc_flat
I0808 16:28:37.033200 16855 net.cpp:425] conv4_3_norm_mbox_loc_flat <- conv4_3_norm_mbox_loc_perm
I0808 16:28:37.033207 16855 net.cpp:399] conv4_3_norm_mbox_loc_flat -> conv4_3_norm_mbox_loc_flat
I0808 16:28:37.033243 16855 net.cpp:141] Setting up conv4_3_norm_mbox_loc_flat
I0808 16:28:37.033252 16855 net.cpp:148] Top shape: 32 17328 (554496)
I0808 16:28:37.033257 16855 net.cpp:156] Memory required for data: 7913834528
I0808 16:28:37.033262 16855 layer_factory.hpp:77] Creating layer conv4_3_norm_mbox_conf
I0808 16:28:37.033275 16855 net.cpp:91] Creating Layer conv4_3_norm_mbox_conf
I0808 16:28:37.033284 16855 net.cpp:425] conv4_3_norm_mbox_conf <- conv4_3_norm_conv4_3_norm_0_split_1
I0808 16:28:37.033295 16855 net.cpp:399] conv4_3_norm_mbox_conf -> conv4_3_norm_mbox_conf
I0808 16:28:37.035395 16855 net.cpp:141] Setting up conv4_3_norm_mbox_conf
I0808 16:28:37.035416 16855 net.cpp:148] Top shape: 32 6 38 38 (277248)
I0808 16:28:37.035423 16855 net.cpp:156] Memory required for data: 7914943520
I0808 16:28:37.035432 16855 layer_factory.hpp:77] Creating layer conv4_3_norm_mbox_conf_perm
I0808 16:28:37.035444 16855 net.cpp:91] Creating Layer conv4_3_norm_mbox_conf_perm
I0808 16:28:37.035465 16855 net.cpp:425] conv4_3_norm_mbox_conf_perm <- conv4_3_norm_mbox_conf
I0808 16:28:37.035475 16855 net.cpp:399] conv4_3_norm_mbox_conf_perm -> conv4_3_norm_mbox_conf_perm
I0808 16:28:37.035609 16855 net.cpp:141] Setting up conv4_3_norm_mbox_conf_perm
I0808 16:28:37.035621 16855 net.cpp:148] Top shape: 32 38 38 6 (277248)
I0808 16:28:37.035626 16855 net.cpp:156] Memory required for data: 7916052512
I0808 16:28:37.035632 16855 layer_factory.hpp:77] Creating layer conv4_3_norm_mbox_conf_flat
I0808 16:28:37.035640 16855 net.cpp:91] Creating Layer conv4_3_norm_mbox_conf_flat
I0808 16:28:37.035648 16855 net.cpp:425] conv4_3_norm_mbox_conf_flat <- conv4_3_norm_mbox_conf_perm
I0808 16:28:37.035660 16855 net.cpp:399] conv4_3_norm_mbox_conf_flat -> conv4_3_norm_mbox_conf_flat
I0808 16:28:37.035692 16855 net.cpp:141] Setting up conv4_3_norm_mbox_conf_flat
I0808 16:28:37.035701 16855 net.cpp:148] Top shape: 32 8664 (277248)
I0808 16:28:37.035706 16855 net.cpp:156] Memory required for data: 7917161504
I0808 16:28:37.035712 16855 layer_factory.hpp:77] Creating layer conv4_3_norm_mbox_priorbox
I0808 16:28:37.035734 16855 net.cpp:91] Creating Layer conv4_3_norm_mbox_priorbox
I0808 16:28:37.035742 16855 net.cpp:425] conv4_3_norm_mbox_priorbox <- conv4_3_norm_conv4_3_norm_0_split_2
I0808 16:28:37.035749 16855 net.cpp:425] conv4_3_norm_mbox_priorbox <- data_data_0_split_1
I0808 16:28:37.035759 16855 net.cpp:399] conv4_3_norm_mbox_priorbox -> conv4_3_norm_mbox_priorbox
I0808 16:28:37.035816 16855 net.cpp:141] Setting up conv4_3_norm_mbox_priorbox
I0808 16:28:37.035825 16855 net.cpp:148] Top shape: 1 2 17328 (34656)
I0808 16:28:37.035830 16855 net.cpp:156] Memory required for data: 7917300128
I0808 16:28:37.035835 16855 layer_factory.hpp:77] Creating layer fc7_mbox_loc
I0808 16:28:37.035851 16855 net.cpp:91] Creating Layer fc7_mbox_loc
I0808 16:28:37.035859 16855 net.cpp:425] fc7_mbox_loc <- fc7_relu7_0_split_1
I0808 16:28:37.035868 16855 net.cpp:399] fc7_mbox_loc -> fc7_mbox_loc
I0808 16:28:37.039361 16855 net.cpp:141] Setting up fc7_mbox_loc
I0808 16:28:37.039379 16855 net.cpp:148] Top shape: 32 24 19 19 (277248)
I0808 16:28:37.039386 16855 net.cpp:156] Memory required for data: 7918409120
I0808 16:28:37.039397 16855 layer_factory.hpp:77] Creating layer fc7_mbox_loc_perm
I0808 16:28:37.039407 16855 net.cpp:91] Creating Layer fc7_mbox_loc_perm
I0808 16:28:37.039413 16855 net.cpp:425] fc7_mbox_loc_perm <- fc7_mbox_loc
I0808 16:28:37.039422 16855 net.cpp:399] fc7_mbox_loc_perm -> fc7_mbox_loc_perm
I0808 16:28:37.039557 16855 net.cpp:141] Setting up fc7_mbox_loc_perm
I0808 16:28:37.039568 16855 net.cpp:148] Top shape: 32 19 19 24 (277248)
I0808 16:28:37.039574 16855 net.cpp:156] Memory required for data: 7919518112
I0808 16:28:37.039579 16855 layer_factory.hpp:77] Creating layer fc7_mbox_loc_flat
I0808 16:28:37.039587 16855 net.cpp:91] Creating Layer fc7_mbox_loc_flat
I0808 16:28:37.039595 16855 net.cpp:425] fc7_mbox_loc_flat <- fc7_mbox_loc_perm
I0808 16:28:37.039604 16855 net.cpp:399] fc7_mbox_loc_flat -> fc7_mbox_loc_flat
I0808 16:28:37.039635 16855 net.cpp:141] Setting up fc7_mbox_loc_flat
I0808 16:28:37.039644 16855 net.cpp:148] Top shape: 32 8664 (277248)
I0808 16:28:37.039647 16855 net.cpp:156] Memory required for data: 7920627104
I0808 16:28:37.039652 16855 layer_factory.hpp:77] Creating layer fc7_mbox_conf
I0808 16:28:37.039669 16855 net.cpp:91] Creating Layer fc7_mbox_conf
I0808 16:28:37.039676 16855 net.cpp:425] fc7_mbox_conf <- fc7_relu7_0_split_2
I0808 16:28:37.039685 16855 net.cpp:399] fc7_mbox_conf -> fc7_mbox_conf
I0808 16:28:37.041688 16855 net.cpp:141] Setting up fc7_mbox_conf
I0808 16:28:37.041707 16855 net.cpp:148] Top shape: 32 12 19 19 (138624)
I0808 16:28:37.041712 16855 net.cpp:156] Memory required for data: 7921181600
I0808 16:28:37.041721 16855 layer_factory.hpp:77] Creating layer fc7_mbox_conf_perm
I0808 16:28:37.041730 16855 net.cpp:91] Creating Layer fc7_mbox_conf_perm
I0808 16:28:37.041736 16855 net.cpp:425] fc7_mbox_conf_perm <- fc7_mbox_conf
I0808 16:28:37.041761 16855 net.cpp:399] fc7_mbox_conf_perm -> fc7_mbox_conf_perm
I0808 16:28:37.041898 16855 net.cpp:141] Setting up fc7_mbox_conf_perm
I0808 16:28:37.041910 16855 net.cpp:148] Top shape: 32 19 19 12 (138624)
I0808 16:28:37.041915 16855 net.cpp:156] Memory required for data: 7921736096
I0808 16:28:37.041920 16855 layer_factory.hpp:77] Creating layer fc7_mbox_conf_flat
I0808 16:28:37.041929 16855 net.cpp:91] Creating Layer fc7_mbox_conf_flat
I0808 16:28:37.041939 16855 net.cpp:425] fc7_mbox_conf_flat <- fc7_mbox_conf_perm
I0808 16:28:37.041945 16855 net.cpp:399] fc7_mbox_conf_flat -> fc7_mbox_conf_flat
I0808 16:28:37.041978 16855 net.cpp:141] Setting up fc7_mbox_conf_flat
I0808 16:28:37.041985 16855 net.cpp:148] Top shape: 32 4332 (138624)
I0808 16:28:37.041990 16855 net.cpp:156] Memory required for data: 7922290592
I0808 16:28:37.041996 16855 layer_factory.hpp:77] Creating layer fc7_mbox_priorbox
I0808 16:28:37.042003 16855 net.cpp:91] Creating Layer fc7_mbox_priorbox
I0808 16:28:37.042009 16855 net.cpp:425] fc7_mbox_priorbox <- fc7_relu7_0_split_3
I0808 16:28:37.042019 16855 net.cpp:425] fc7_mbox_priorbox <- data_data_0_split_2
I0808 16:28:37.042029 16855 net.cpp:399] fc7_mbox_priorbox -> fc7_mbox_priorbox
I0808 16:28:37.042064 16855 net.cpp:141] Setting up fc7_mbox_priorbox
I0808 16:28:37.042071 16855 net.cpp:148] Top shape: 1 2 8664 (17328)
I0808 16:28:37.042090 16855 net.cpp:156] Memory required for data: 7922359904
I0808 16:28:37.042095 16855 layer_factory.hpp:77] Creating layer conv6_2_mbox_loc
I0808 16:28:37.042109 16855 net.cpp:91] Creating Layer conv6_2_mbox_loc
I0808 16:28:37.042119 16855 net.cpp:425] conv6_2_mbox_loc <- conv6_2_conv6_2_relu_0_split_1
I0808 16:28:37.042130 16855 net.cpp:399] conv6_2_mbox_loc -> conv6_2_mbox_loc
I0808 16:28:37.044661 16855 net.cpp:141] Setting up conv6_2_mbox_loc
I0808 16:28:37.044679 16855 net.cpp:148] Top shape: 32 24 10 10 (76800)
I0808 16:28:37.044687 16855 net.cpp:156] Memory required for data: 7922667104
I0808 16:28:37.044697 16855 layer_factory.hpp:77] Creating layer conv6_2_mbox_loc_perm
I0808 16:28:37.044705 16855 net.cpp:91] Creating Layer conv6_2_mbox_loc_perm
I0808 16:28:37.044713 16855 net.cpp:425] conv6_2_mbox_loc_perm <- conv6_2_mbox_loc
I0808 16:28:37.044720 16855 net.cpp:399] conv6_2_mbox_loc_perm -> conv6_2_mbox_loc_perm
I0808 16:28:37.044853 16855 net.cpp:141] Setting up conv6_2_mbox_loc_perm
I0808 16:28:37.044865 16855 net.cpp:148] Top shape: 32 10 10 24 (76800)
I0808 16:28:37.044870 16855 net.cpp:156] Memory required for data: 7922974304
I0808 16:28:37.044875 16855 layer_factory.hpp:77] Creating layer conv6_2_mbox_loc_flat
I0808 16:28:37.044883 16855 net.cpp:91] Creating Layer conv6_2_mbox_loc_flat
I0808 16:28:37.044893 16855 net.cpp:425] conv6_2_mbox_loc_flat <- conv6_2_mbox_loc_perm
I0808 16:28:37.044901 16855 net.cpp:399] conv6_2_mbox_loc_flat -> conv6_2_mbox_loc_flat
I0808 16:28:37.044934 16855 net.cpp:141] Setting up conv6_2_mbox_loc_flat
I0808 16:28:37.044942 16855 net.cpp:148] Top shape: 32 2400 (76800)
I0808 16:28:37.044946 16855 net.cpp:156] Memory required for data: 7923281504
I0808 16:28:37.044951 16855 layer_factory.hpp:77] Creating layer conv6_2_mbox_conf
I0808 16:28:37.044965 16855 net.cpp:91] Creating Layer conv6_2_mbox_conf
I0808 16:28:37.044970 16855 net.cpp:425] conv6_2_mbox_conf <- conv6_2_conv6_2_relu_0_split_2
I0808 16:28:37.044981 16855 net.cpp:399] conv6_2_mbox_conf -> conv6_2_mbox_conf
I0808 16:28:37.046643 16855 net.cpp:141] Setting up conv6_2_mbox_conf
I0808 16:28:37.046661 16855 net.cpp:148] Top shape: 32 12 10 10 (38400)
I0808 16:28:37.046667 16855 net.cpp:156] Memory required for data: 7923435104
I0808 16:28:37.046677 16855 layer_factory.hpp:77] Creating layer conv6_2_mbox_conf_perm
I0808 16:28:37.046685 16855 net.cpp:91] Creating Layer conv6_2_mbox_conf_perm
I0808 16:28:37.046694 16855 net.cpp:425] conv6_2_mbox_conf_perm <- conv6_2_mbox_conf
I0808 16:28:37.046702 16855 net.cpp:399] conv6_2_mbox_conf_perm -> conv6_2_mbox_conf_perm
I0808 16:28:37.046836 16855 net.cpp:141] Setting up conv6_2_mbox_conf_perm
I0808 16:28:37.046862 16855 net.cpp:148] Top shape: 32 10 10 12 (38400)
I0808 16:28:37.046869 16855 net.cpp:156] Memory required for data: 7923588704
I0808 16:28:37.046875 16855 layer_factory.hpp:77] Creating layer conv6_2_mbox_conf_flat
I0808 16:28:37.046881 16855 net.cpp:91] Creating Layer conv6_2_mbox_conf_flat
I0808 16:28:37.046887 16855 net.cpp:425] conv6_2_mbox_conf_flat <- conv6_2_mbox_conf_perm
I0808 16:28:37.046895 16855 net.cpp:399] conv6_2_mbox_conf_flat -> conv6_2_mbox_conf_flat
I0808 16:28:37.046931 16855 net.cpp:141] Setting up conv6_2_mbox_conf_flat
I0808 16:28:37.046942 16855 net.cpp:148] Top shape: 32 1200 (38400)
I0808 16:28:37.046949 16855 net.cpp:156] Memory required for data: 7923742304
I0808 16:28:37.046954 16855 layer_factory.hpp:77] Creating layer conv6_2_mbox_priorbox
I0808 16:28:37.046964 16855 net.cpp:91] Creating Layer conv6_2_mbox_priorbox
I0808 16:28:37.046972 16855 net.cpp:425] conv6_2_mbox_priorbox <- conv6_2_conv6_2_relu_0_split_3
I0808 16:28:37.046978 16855 net.cpp:425] conv6_2_mbox_priorbox <- data_data_0_split_3
I0808 16:28:37.046986 16855 net.cpp:399] conv6_2_mbox_priorbox -> conv6_2_mbox_priorbox
I0808 16:28:37.047027 16855 net.cpp:141] Setting up conv6_2_mbox_priorbox
I0808 16:28:37.047037 16855 net.cpp:148] Top shape: 1 2 2400 (4800)
I0808 16:28:37.047042 16855 net.cpp:156] Memory required for data: 7923761504
I0808 16:28:37.047047 16855 layer_factory.hpp:77] Creating layer conv7_2_mbox_loc
I0808 16:28:37.047060 16855 net.cpp:91] Creating Layer conv7_2_mbox_loc
I0808 16:28:37.047066 16855 net.cpp:425] conv7_2_mbox_loc <- conv7_2_conv7_2_relu_0_split_1
I0808 16:28:37.047076 16855 net.cpp:399] conv7_2_mbox_loc -> conv7_2_mbox_loc
I0808 16:28:37.048689 16855 net.cpp:141] Setting up conv7_2_mbox_loc
I0808 16:28:37.048707 16855 net.cpp:148] Top shape: 32 24 5 5 (19200)
I0808 16:28:37.048713 16855 net.cpp:156] Memory required for data: 7923838304
I0808 16:28:37.048722 16855 layer_factory.hpp:77] Creating layer conv7_2_mbox_loc_perm
I0808 16:28:37.048733 16855 net.cpp:91] Creating Layer conv7_2_mbox_loc_perm
I0808 16:28:37.048740 16855 net.cpp:425] conv7_2_mbox_loc_perm <- conv7_2_mbox_loc
I0808 16:28:37.048748 16855 net.cpp:399] conv7_2_mbox_loc_perm -> conv7_2_mbox_loc_perm
I0808 16:28:37.048883 16855 net.cpp:141] Setting up conv7_2_mbox_loc_perm
I0808 16:28:37.048894 16855 net.cpp:148] Top shape: 32 5 5 24 (19200)
I0808 16:28:37.048899 16855 net.cpp:156] Memory required for data: 7923915104
I0808 16:28:37.048904 16855 layer_factory.hpp:77] Creating layer conv7_2_mbox_loc_flat
I0808 16:28:37.048913 16855 net.cpp:91] Creating Layer conv7_2_mbox_loc_flat
I0808 16:28:37.048918 16855 net.cpp:425] conv7_2_mbox_loc_flat <- conv7_2_mbox_loc_perm
I0808 16:28:37.048928 16855 net.cpp:399] conv7_2_mbox_loc_flat -> conv7_2_mbox_loc_flat
I0808 16:28:37.048957 16855 net.cpp:141] Setting up conv7_2_mbox_loc_flat
I0808 16:28:37.048969 16855 net.cpp:148] Top shape: 32 600 (19200)
I0808 16:28:37.048974 16855 net.cpp:156] Memory required for data: 7923991904
I0808 16:28:37.048977 16855 layer_factory.hpp:77] Creating layer conv7_2_mbox_conf
I0808 16:28:37.048995 16855 net.cpp:91] Creating Layer conv7_2_mbox_conf
I0808 16:28:37.049001 16855 net.cpp:425] conv7_2_mbox_conf <- conv7_2_conv7_2_relu_0_split_2
I0808 16:28:37.049010 16855 net.cpp:399] conv7_2_mbox_conf -> conv7_2_mbox_conf
I0808 16:28:37.050315 16855 net.cpp:141] Setting up conv7_2_mbox_conf
I0808 16:28:37.050333 16855 net.cpp:148] Top shape: 32 12 5 5 (9600)
I0808 16:28:37.050339 16855 net.cpp:156] Memory required for data: 7924030304
I0808 16:28:37.050348 16855 layer_factory.hpp:77] Creating layer conv7_2_mbox_conf_perm
I0808 16:28:37.050359 16855 net.cpp:91] Creating Layer conv7_2_mbox_conf_perm
I0808 16:28:37.050366 16855 net.cpp:425] conv7_2_mbox_conf_perm <- conv7_2_mbox_conf
I0808 16:28:37.050375 16855 net.cpp:399] conv7_2_mbox_conf_perm -> conv7_2_mbox_conf_perm
I0808 16:28:37.050508 16855 net.cpp:141] Setting up conv7_2_mbox_conf_perm
I0808 16:28:37.050518 16855 net.cpp:148] Top shape: 32 5 5 12 (9600)
I0808 16:28:37.050525 16855 net.cpp:156] Memory required for data: 7924068704
I0808 16:28:37.050542 16855 layer_factory.hpp:77] Creating layer conv7_2_mbox_conf_flat
I0808 16:28:37.050551 16855 net.cpp:91] Creating Layer conv7_2_mbox_conf_flat
I0808 16:28:37.050557 16855 net.cpp:425] conv7_2_mbox_conf_flat <- conv7_2_mbox_conf_perm
I0808 16:28:37.050565 16855 net.cpp:399] conv7_2_mbox_conf_flat -> conv7_2_mbox_conf_flat
I0808 16:28:37.050601 16855 net.cpp:141] Setting up conv7_2_mbox_conf_flat
I0808 16:28:37.050611 16855 net.cpp:148] Top shape: 32 300 (9600)
I0808 16:28:37.050616 16855 net.cpp:156] Memory required for data: 7924107104
I0808 16:28:37.050621 16855 layer_factory.hpp:77] Creating layer conv7_2_mbox_priorbox
I0808 16:28:37.050629 16855 net.cpp:91] Creating Layer conv7_2_mbox_priorbox
I0808 16:28:37.050637 16855 net.cpp:425] conv7_2_mbox_priorbox <- conv7_2_conv7_2_relu_0_split_3
I0808 16:28:37.050644 16855 net.cpp:425] conv7_2_mbox_priorbox <- data_data_0_split_4
I0808 16:28:37.050652 16855 net.cpp:399] conv7_2_mbox_priorbox -> conv7_2_mbox_priorbox
I0808 16:28:37.050686 16855 net.cpp:141] Setting up conv7_2_mbox_priorbox
I0808 16:28:37.050696 16855 net.cpp:148] Top shape: 1 2 600 (1200)
I0808 16:28:37.050701 16855 net.cpp:156] Memory required for data: 7924111904
I0808 16:28:37.050706 16855 layer_factory.hpp:77] Creating layer conv8_2_mbox_loc
I0808 16:28:37.050719 16855 net.cpp:91] Creating Layer conv8_2_mbox_loc
I0808 16:28:37.050725 16855 net.cpp:425] conv8_2_mbox_loc <- conv8_2_conv8_2_relu_0_split_1
I0808 16:28:37.050736 16855 net.cpp:399] conv8_2_mbox_loc -> conv8_2_mbox_loc
I0808 16:28:37.052356 16855 net.cpp:141] Setting up conv8_2_mbox_loc
I0808 16:28:37.052373 16855 net.cpp:148] Top shape: 32 24 3 3 (6912)
I0808 16:28:37.052379 16855 net.cpp:156] Memory required for data: 7924139552
I0808 16:28:37.052388 16855 layer_factory.hpp:77] Creating layer conv8_2_mbox_loc_perm
I0808 16:28:37.052397 16855 net.cpp:91] Creating Layer conv8_2_mbox_loc_perm
I0808 16:28:37.052403 16855 net.cpp:425] conv8_2_mbox_loc_perm <- conv8_2_mbox_loc
I0808 16:28:37.052413 16855 net.cpp:399] conv8_2_mbox_loc_perm -> conv8_2_mbox_loc_perm
I0808 16:28:37.052551 16855 net.cpp:141] Setting up conv8_2_mbox_loc_perm
I0808 16:28:37.052562 16855 net.cpp:148] Top shape: 32 3 3 24 (6912)
I0808 16:28:37.052567 16855 net.cpp:156] Memory required for data: 7924167200
I0808 16:28:37.052572 16855 layer_factory.hpp:77] Creating layer conv8_2_mbox_loc_flat
I0808 16:28:37.052582 16855 net.cpp:91] Creating Layer conv8_2_mbox_loc_flat
I0808 16:28:37.052588 16855 net.cpp:425] conv8_2_mbox_loc_flat <- conv8_2_mbox_loc_perm
I0808 16:28:37.052595 16855 net.cpp:399] conv8_2_mbox_loc_flat -> conv8_2_mbox_loc_flat
I0808 16:28:37.052628 16855 net.cpp:141] Setting up conv8_2_mbox_loc_flat
I0808 16:28:37.052637 16855 net.cpp:148] Top shape: 32 216 (6912)
I0808 16:28:37.052642 16855 net.cpp:156] Memory required for data: 7924194848
I0808 16:28:37.052647 16855 layer_factory.hpp:77] Creating layer conv8_2_mbox_conf
I0808 16:28:37.052664 16855 net.cpp:91] Creating Layer conv8_2_mbox_conf
I0808 16:28:37.052670 16855 net.cpp:425] conv8_2_mbox_conf <- conv8_2_conv8_2_relu_0_split_2
I0808 16:28:37.052678 16855 net.cpp:399] conv8_2_mbox_conf -> conv8_2_mbox_conf
I0808 16:28:37.054189 16855 net.cpp:141] Setting up conv8_2_mbox_conf
I0808 16:28:37.054210 16855 net.cpp:148] Top shape: 32 12 3 3 (3456)
I0808 16:28:37.054216 16855 net.cpp:156] Memory required for data: 7924208672
I0808 16:28:37.054225 16855 layer_factory.hpp:77] Creating layer conv8_2_mbox_conf_perm
I0808 16:28:37.054234 16855 net.cpp:91] Creating Layer conv8_2_mbox_conf_perm
I0808 16:28:37.054241 16855 net.cpp:425] conv8_2_mbox_conf_perm <- conv8_2_mbox_conf
I0808 16:28:37.054251 16855 net.cpp:399] conv8_2_mbox_conf_perm -> conv8_2_mbox_conf_perm
I0808 16:28:37.054388 16855 net.cpp:141] Setting up conv8_2_mbox_conf_perm
I0808 16:28:37.054399 16855 net.cpp:148] Top shape: 32 3 3 12 (3456)
I0808 16:28:37.054404 16855 net.cpp:156] Memory required for data: 7924222496
I0808 16:28:37.054409 16855 layer_factory.hpp:77] Creating layer conv8_2_mbox_conf_flat
I0808 16:28:37.054428 16855 net.cpp:91] Creating Layer conv8_2_mbox_conf_flat
I0808 16:28:37.054435 16855 net.cpp:425] conv8_2_mbox_conf_flat <- conv8_2_mbox_conf_perm
I0808 16:28:37.054443 16855 net.cpp:399] conv8_2_mbox_conf_flat -> conv8_2_mbox_conf_flat
I0808 16:28:37.054481 16855 net.cpp:141] Setting up conv8_2_mbox_conf_flat
I0808 16:28:37.054492 16855 net.cpp:148] Top shape: 32 108 (3456)
I0808 16:28:37.054497 16855 net.cpp:156] Memory required for data: 7924236320
I0808 16:28:37.054502 16855 layer_factory.hpp:77] Creating layer conv8_2_mbox_priorbox
I0808 16:28:37.054512 16855 net.cpp:91] Creating Layer conv8_2_mbox_priorbox
I0808 16:28:37.054517 16855 net.cpp:425] conv8_2_mbox_priorbox <- conv8_2_conv8_2_relu_0_split_3
I0808 16:28:37.054525 16855 net.cpp:425] conv8_2_mbox_priorbox <- data_data_0_split_5
I0808 16:28:37.054533 16855 net.cpp:399] conv8_2_mbox_priorbox -> conv8_2_mbox_priorbox
I0808 16:28:37.054569 16855 net.cpp:141] Setting up conv8_2_mbox_priorbox
I0808 16:28:37.054579 16855 net.cpp:148] Top shape: 1 2 216 (432)
I0808 16:28:37.054584 16855 net.cpp:156] Memory required for data: 7924238048
I0808 16:28:37.054589 16855 layer_factory.hpp:77] Creating layer pool6_mbox_loc
I0808 16:28:37.054602 16855 net.cpp:91] Creating Layer pool6_mbox_loc
I0808 16:28:37.054608 16855 net.cpp:425] pool6_mbox_loc <- pool6_pool6_0_split_0
I0808 16:28:37.054618 16855 net.cpp:399] pool6_mbox_loc -> pool6_mbox_loc
I0808 16:28:37.056787 16855 net.cpp:141] Setting up pool6_mbox_loc
I0808 16:28:37.056807 16855 net.cpp:148] Top shape: 32 24 1 1 (768)
I0808 16:28:37.056812 16855 net.cpp:156] Memory required for data: 7924241120
I0808 16:28:37.056834 16855 layer_factory.hpp:77] Creating layer pool6_mbox_loc_perm
I0808 16:28:37.056848 16855 net.cpp:91] Creating Layer pool6_mbox_loc_perm
I0808 16:28:37.056854 16855 net.cpp:425] pool6_mbox_loc_perm <- pool6_mbox_loc
I0808 16:28:37.056861 16855 net.cpp:399] pool6_mbox_loc_perm -> pool6_mbox_loc_perm
I0808 16:28:37.056996 16855 net.cpp:141] Setting up pool6_mbox_loc_perm
I0808 16:28:37.057008 16855 net.cpp:148] Top shape: 32 1 1 24 (768)
I0808 16:28:37.057014 16855 net.cpp:156] Memory required for data: 7924244192
I0808 16:28:37.057019 16855 layer_factory.hpp:77] Creating layer pool6_mbox_loc_flat
I0808 16:28:37.057026 16855 net.cpp:91] Creating Layer pool6_mbox_loc_flat
I0808 16:28:37.057032 16855 net.cpp:425] pool6_mbox_loc_flat <- pool6_mbox_loc_perm
I0808 16:28:37.057039 16855 net.cpp:399] pool6_mbox_loc_flat -> pool6_mbox_loc_flat
I0808 16:28:37.057072 16855 net.cpp:141] Setting up pool6_mbox_loc_flat
I0808 16:28:37.057082 16855 net.cpp:148] Top shape: 32 24 (768)
I0808 16:28:37.057087 16855 net.cpp:156] Memory required for data: 7924247264
I0808 16:28:37.057092 16855 layer_factory.hpp:77] Creating layer pool6_mbox_conf
I0808 16:28:37.057106 16855 net.cpp:91] Creating Layer pool6_mbox_conf
I0808 16:28:37.057112 16855 net.cpp:425] pool6_mbox_conf <- pool6_pool6_0_split_1
I0808 16:28:37.057126 16855 net.cpp:399] pool6_mbox_conf -> pool6_mbox_conf
I0808 16:28:37.058612 16855 net.cpp:141] Setting up pool6_mbox_conf
I0808 16:28:37.058635 16855 net.cpp:148] Top shape: 32 12 1 1 (384)
I0808 16:28:37.058643 16855 net.cpp:156] Memory required for data: 7924248800
I0808 16:28:37.058656 16855 layer_factory.hpp:77] Creating layer pool6_mbox_conf_perm
I0808 16:28:37.058671 16855 net.cpp:91] Creating Layer pool6_mbox_conf_perm
I0808 16:28:37.058681 16855 net.cpp:425] pool6_mbox_conf_perm <- pool6_mbox_conf
I0808 16:28:37.058692 16855 net.cpp:399] pool6_mbox_conf_perm -> pool6_mbox_conf_perm
I0808 16:28:37.058887 16855 net.cpp:141] Setting up pool6_mbox_conf_perm
I0808 16:28:37.058903 16855 net.cpp:148] Top shape: 32 1 1 12 (384)
I0808 16:28:37.058908 16855 net.cpp:156] Memory required for data: 7924250336
I0808 16:28:37.058914 16855 layer_factory.hpp:77] Creating layer pool6_mbox_conf_flat
I0808 16:28:37.058923 16855 net.cpp:91] Creating Layer pool6_mbox_conf_flat
I0808 16:28:37.058930 16855 net.cpp:425] pool6_mbox_conf_flat <- pool6_mbox_conf_perm
I0808 16:28:37.058938 16855 net.cpp:399] pool6_mbox_conf_flat -> pool6_mbox_conf_flat
I0808 16:28:37.058986 16855 net.cpp:141] Setting up pool6_mbox_conf_flat
I0808 16:28:37.058997 16855 net.cpp:148] Top shape: 32 12 (384)
I0808 16:28:37.059002 16855 net.cpp:156] Memory required for data: 7924251872
I0808 16:28:37.059007 16855 layer_factory.hpp:77] Creating layer pool6_mbox_priorbox
I0808 16:28:37.059018 16855 net.cpp:91] Creating Layer pool6_mbox_priorbox
I0808 16:28:37.059023 16855 net.cpp:425] pool6_mbox_priorbox <- pool6_pool6_0_split_2
I0808 16:28:37.059031 16855 net.cpp:425] pool6_mbox_priorbox <- data_data_0_split_6
I0808 16:28:37.059039 16855 net.cpp:399] pool6_mbox_priorbox -> pool6_mbox_priorbox
I0808 16:28:37.059073 16855 net.cpp:141] Setting up pool6_mbox_priorbox
I0808 16:28:37.059082 16855 net.cpp:148] Top shape: 1 2 24 (48)
I0808 16:28:37.059087 16855 net.cpp:156] Memory required for data: 7924252064
I0808 16:28:37.059092 16855 layer_factory.hpp:77] Creating layer mbox_loc
I0808 16:28:37.059103 16855 net.cpp:91] Creating Layer mbox_loc
I0808 16:28:37.059109 16855 net.cpp:425] mbox_loc <- conv4_3_norm_mbox_loc_flat
I0808 16:28:37.059116 16855 net.cpp:425] mbox_loc <- fc7_mbox_loc_flat
I0808 16:28:37.059123 16855 net.cpp:425] mbox_loc <- conv6_2_mbox_loc_flat
I0808 16:28:37.059128 16855 net.cpp:425] mbox_loc <- conv7_2_mbox_loc_flat
I0808 16:28:37.059134 16855 net.cpp:425] mbox_loc <- conv8_2_mbox_loc_flat
I0808 16:28:37.059140 16855 net.cpp:425] mbox_loc <- pool6_mbox_loc_flat
I0808 16:28:37.059149 16855 net.cpp:399] mbox_loc -> mbox_loc
I0808 16:28:37.059188 16855 net.cpp:141] Setting up mbox_loc
I0808 16:28:37.059198 16855 net.cpp:148] Top shape: 32 29232 (935424)
I0808 16:28:37.059203 16855 net.cpp:156] Memory required for data: 7927993760
I0808 16:28:37.059208 16855 layer_factory.hpp:77] Creating layer mbox_conf
I0808 16:28:37.059219 16855 net.cpp:91] Creating Layer mbox_conf
I0808 16:28:37.059226 16855 net.cpp:425] mbox_conf <- conv4_3_norm_mbox_conf_flat
I0808 16:28:37.059231 16855 net.cpp:425] mbox_conf <- fc7_mbox_conf_flat
I0808 16:28:37.059238 16855 net.cpp:425] mbox_conf <- conv6_2_mbox_conf_flat
I0808 16:28:37.059244 16855 net.cpp:425] mbox_conf <- conv7_2_mbox_conf_flat
I0808 16:28:37.059249 16855 net.cpp:425] mbox_conf <- conv8_2_mbox_conf_flat
I0808 16:28:37.059255 16855 net.cpp:425] mbox_conf <- pool6_mbox_conf_flat
I0808 16:28:37.059262 16855 net.cpp:399] mbox_conf -> mbox_conf
I0808 16:28:37.059294 16855 net.cpp:141] Setting up mbox_conf
I0808 16:28:37.059303 16855 net.cpp:148] Top shape: 32 14616 (467712)
I0808 16:28:37.059309 16855 net.cpp:156] Memory required for data: 7929864608
I0808 16:28:37.059314 16855 layer_factory.hpp:77] Creating layer mbox_priorbox
I0808 16:28:37.059320 16855 net.cpp:91] Creating Layer mbox_priorbox
I0808 16:28:37.059326 16855 net.cpp:425] mbox_priorbox <- conv4_3_norm_mbox_priorbox
I0808 16:28:37.059332 16855 net.cpp:425] mbox_priorbox <- fc7_mbox_priorbox
I0808 16:28:37.059339 16855 net.cpp:425] mbox_priorbox <- conv6_2_mbox_priorbox
I0808 16:28:37.059345 16855 net.cpp:425] mbox_priorbox <- conv7_2_mbox_priorbox
I0808 16:28:37.059350 16855 net.cpp:425] mbox_priorbox <- conv8_2_mbox_priorbox
I0808 16:28:37.059355 16855 net.cpp:425] mbox_priorbox <- pool6_mbox_priorbox
I0808 16:28:37.059363 16855 net.cpp:399] mbox_priorbox -> mbox_priorbox
I0808 16:28:37.059394 16855 net.cpp:141] Setting up mbox_priorbox
I0808 16:28:37.059404 16855 net.cpp:148] Top shape: 1 2 29232 (58464)
I0808 16:28:37.059409 16855 net.cpp:156] Memory required for data: 7930098464
I0808 16:28:37.059414 16855 layer_factory.hpp:77] Creating layer mbox_loss
I0808 16:28:37.059427 16855 net.cpp:91] Creating Layer mbox_loss
I0808 16:28:37.059432 16855 net.cpp:425] mbox_loss <- mbox_loc
I0808 16:28:37.059438 16855 net.cpp:425] mbox_loss <- mbox_conf
I0808 16:28:37.059444 16855 net.cpp:425] mbox_loss <- mbox_priorbox
…
state {
  phase: TEST
}
layer {
  name: "data"
  type: "AnnotatedData"
  top: "data"
  top: "label"
  include {
    phase: TEST
  }
  transform_param {
    mean_value: 104
    mean_value: 117
    mean_value: 123
    resize_param {
      prob: 1
      resize_mode: WARP
      height: 300
      width: 300
      interp_mode: LINEAR
    }
  }
  data_param {
    source: "examples/VOC2007/VOC2007_test_lmdb"
    batch_size: 1
    backend: LMDB
  }
  annotated_data_param {
    batch_sampler {
    }
    label_map_file: "data/VOC2007/labelmap_voc.prototxt"
  }
}
layer {
  name: "conv1_1"
  type: "Convolution"
  bottom: "data"
  top: "conv1_1"
  param {
    lr_mult: 0
    decay_mult: 0
  }
  param {
    lr_mult: 0
    decay_mult: 0
  }
  convolution_param {
    num_output: 64
    pad: 1
    kernel_size: 3
    weight_filler {
      type: "xavier"
    }
    bias_filler {
      type: "constant"
      value: 0
    }
  }
}
layer {
  name: "relu1_1"
  type: "ReLU"
  bottom: "conv1_1"
  top: "conv1_1"
}
layer {
  name: "conv1_2"
  type: "Convolution"
  bottom: "conv1_1"
  top: "conv1_2"
  param {
    lr_mult: 0
    decay_mult: 0
  }
  param {
    lr_mult: 0
    decay_mult: 0
  }
  convolution_param {
    num_output: 64
    pad: 1
    kernel_size: 3
    weight_filler {
      type: "xavier"
    }
    bias_filler {
      type: "constant"
      value: 0
    }
  }
}
layer {
  name: "relu1_2"
  type: "ReLU"
  bottom: "conv1_2"
  top: "conv1_2"
}
layer {
  name: "pool1"
  type: "Pooling"
  bottom: "conv1_2"
  top: "pool1"
  pooling_param {
    pool: MAX
    kernel_size: 2
    stride: 2
  }
}
layer {
  name: "conv2_1"
  type: "Convolution"
  bottom: "pool1"
  top: "conv2_1"
  param {
    lr_mult: 0
    decay_mult: 0
  }
  param {
    lr_mult: 0
    decay_mult: 0
  }
  convolution_param {
    num_output: 128
    pad: 1
    kernel_size: 3
    weight_filler {
      type: "xavier"
    }
    bias_filler {
      type: "constant"
      value: 0
    }
  }
}
layer {
  name: "relu2_1"
  type: "ReLU"
  bottom: "conv2_1"
  top: "conv2_1"
}
layer {
  name: "conv2_2"
  type: "Convolution"
  bottom: "conv2_1"
  top: "conv2_2"
  param {
    lr_mult: 0
    decay_mult: 0
  }
  param {
    lr_mult: 0
    decay_mult: 0
  }
  convolution_param {
    num_output: 128
    pad: 1
    kernel_size: 3
    weight_filler {
      type: "xavier"
    }
    bias_filler {
      type: "constant"
      value: 0
    }
  }
}
layer {
  name: "relu2_2"
  type: "ReLU"
  bottom: "conv2_2"
  top: "conv2_2"
}
layer {
  name: "pool2"
  type: "Pooling"
  bottom: "conv2_2"
  top: "pool2"
  pooling_param {
    pool: MAX
    kernel_size: 2
    stride: 2
  }
}
layer {
  name: "conv3_1"
  type: "Convolution"
  bottom: "pool2"
  top: "conv3_1"
  param {
    lr_mult: 1
    decay_mult: 1
  }
  param {
    lr_mult: 2
    decay_mult: 0
  }
  convolution_param {
    num_output: 256
    pad: 1
    kernel_size: 3
    weight_filler {
      type: "xavier"
    }
    bias_filler {
      type: "constant"
      value: 0
    }
  }
}
layer {
  name: "relu3_1"
  type: "ReLU"
  bottom: "conv3_1"
  top: "conv3_1"
}
layer {
  name: "conv3_2"
  type: "Convolution"
  bottom: "conv3_1"
  top: "conv3_2"
  param {
    lr_mult: 1
    decay_mult: 1
  }
  param {
    lr_mult: 2
    decay_mult: 0
  }
  convolution_param {
    num_output: 256
    pad: 1
    kernel_size: 3
    weight_filler {
      type: "xavier"
    }
    bias_filler {
      type: "constant"
      value: 0
    }
  }
}
layer {
  name: "relu3_2"
  type: "ReLU"
  bottom: "conv3_2"
  top: "conv3_2"
}
layer {
  name: "conv3_3"
  type: "Convolution"
  bottom: "conv3_2"
  top: "conv3_3"
  param {
    lr_mult: 1
    decay_mult: 1
  }
  param {
    lr_mult: 2
    decay_mult: 0
  }
  convolution_param {
    num_output: 256
    pad: 1
    kernel_size: 3
    weight_filler {
      type: "xavier"
    }
    bias_filler {
      type: "constant"
      value: 0
    }
  }
}
layer {
  name: "relu3_3"
  type: "ReLU"
  bottom: "conv3_3"
  top: "conv3_3"
}
layer {
  name: "pool3"
  type: "Pooling"
  bottom: "conv3_3"
  top: "pool3"
  pooling_param {
    pool: MAX
    kernel_size: 2
    stride: 2
  }
}
layer {
  name: "conv4_1"
  type: "Convolution"
  bottom: "pool3"
  top: "conv4_1"
  param {
    lr_mult: 1
    decay_mult: 1
  }
  param {
    lr_mult: 2
    decay_mult: 0
  }
  convolution_param {
    num_output: 512
    pad: 1
    kernel_size: 3
    weight_filler {
      type: "xavier"
    }
    bias_filler {
      type: "constant"
      value: 0
    }
  }
}
layer {
  name: "relu4_1"
  type: "ReLU"
  bottom: "conv4_1"
  top: "conv4_1"
}
layer {
  name: "conv4_2"
  type: "Convolution"
  bottom: "conv4_1"
  top: "conv4_2"
  param {
    lr_mult: 1
    decay_mult: 1
  }
  param {
    lr_mult: 2
    decay_mult: 0
  }
  convolution_param {
    num_output: 512
    pad: 1
    kernel_size: 3
    weight_filler {
      type: "xavier"
    }
    bias_filler {
      type: "constant"
      value: 0
    }
  }
}
layer {
  name: "relu4_2"
  type: "ReLU"
  bottom: "conv4_2"
  top: "conv4_2"
}
layer {
  name: "conv4_3"
  type: "Convolution"
  bottom: "conv4_2"
  top: "conv4_3"
  param {
    lr_mult: 1
    decay_mult: 1
  }
  param {
    lr_mult: 2
    decay_mult: 0
  }
  convolution_param {
    num_output: 512
    pad: 1
    kernel_size: 3
    weight_filler {
      type: "xavier"
    }
    bias_filler {
      type: "constant"
      value: 0
    }
  }
}
layer {
  name: "relu4_3"
  type: "ReLU"
  bottom: "conv4_3"
  top: "conv4_3"
}
layer {
  name: "pool4"
  type: "Pooling"
  bottom: "conv4_3"
  top: "pool4"
  pooling_param {
    pool: MAX
    kernel_size: 2
    stride: 2
  }
}
layer {
  name: "conv5_1"
  type: "Convolution"
  bottom: "pool4"
  top: "conv5_1"
  param {
    lr_mult: 1
    decay_mult: 1
  }
  param {
    lr_mult: 2
    decay_mult: 0
  }
  convolution_param {
    num_output: 512
    pad: 1
    kernel_size: 3
    weight_filler {
      type: "xavier"
    }
    bias_filler {
      type: "constant"
      value: 0
    }
  }
}
layer {
  name: "relu5_1"
  type: "ReLU"
  bottom: "conv5_1"
  top: "conv5_1"
}
layer {
  name: "conv5_2"
  type: "Convolution"
  bottom: "conv5_1"
  top: "conv5_2"
  param {
    lr_mult: 1
    decay_mult: 1
  }
  param {
    lr_mult: 2
    decay_mult: 0
  }
  convolution_param {
    num_output: 512
    pad: 1
    kernel_size: 3
    weight_filler {
      type: "xavier"
    }
    bias_filler {
      type: "constant"
      value: 0
    }
  }
}
layer {
  name: "relu5_2"
  type: "ReLU"
  bottom: "conv5_2"
  top: "conv5_2"
}
layer {
  name: "conv5_3"
  type: "Convolution"
  bottom: "conv5_2"
  top: "conv5_3"
  param {
    lr_mult: 1
    decay_mult: 1
  }
  param {
    lr_mult: 2
    decay_mult: 0
  }
  convolution_param {
    num_output: 512
    pad: 1
    kernel_size: 3
    weight_filler {
      type: "xavier"
    }
    bias_filler {
      type: "constant"
      value: 0
    }
  }
}
layer {
  name: "relu5_3"
  type: "ReLU"
  bottom: "conv5_3"
  top: "conv5_3"
}
layer {
  name: "pool5"
  type: "Pooling"
  bottom: "conv5_3"
  top: "pool5"
  pooling_param {
    pool: MAX
    kernel_size: 3
    stride: 1
    pad: 1
  }
}
layer {
  name: "fc6"
  type: "Convolution"
  bottom: "pool5"
  top: "fc6"
  param {
    lr_mult: 1
    decay_mult: 1
  }
  param {
    lr_mult: 2
    decay_mult: 0
  }
  convolution_param {
    num_output: 1024
    pad: 6
    kernel_size: 3
    weight_filler {
      type: "xavier"
    }
    bias_filler {
      type: "constant"
      value: 0
    }
    dilation: 6
  }
}
layer {
  name: "relu6"
  type: "ReLU"
  bottom: "fc6"
  top: "fc6"
}
layer {
  name: "fc7"
  type: "Convolution"
  bottom: "fc6"
  top: "fc7"
  param {
    lr_mult: 1
    decay_mult: 1
  }
  param {
    lr_mult: 2
    decay_mult: 0
  }
  convolution_param {
    num_output: 1024
    kernel_size: 1
    weight_filler {
      type: "xavier"
    }
    bias_filler {
      type: "constant"
      value: 0
    }
  }
}
layer {
  name: "relu7"
  type: "ReLU"
  bottom: "fc7"
  top: "fc7"
}
layer {
  name: "conv6_1"
  type: "Convolution"
  bottom: "fc7"
  top: "conv6_1"
  param {
    lr_mult: 1
    decay_mult: 1
  }
  param {
    lr_mult: 2
    decay_mult: 0
  }
  convolution_param {
    num_output: 256
    pad: 0
    kernel_size: 1
    stride: 1
    weight_filler {
      type: "xavier"
    }
    bias_filler {
      type: "constant"
      value: 0
    }
  }
}
layer {
  name: "conv6_1_relu"
  type: "ReLU"
  bottom: "conv6_1"
  top: "conv6_1"
}
layer {
  name: "conv6_2"
  type: "Convolution"
  bottom: "conv6_1"
  top: "conv6_2"
  param {
    lr_mult: 1
    decay_mult: 1
  }
  param {
    lr_mult: 2
    decay_mult: 0
  }
  convolution_param {
    num_output: 512
    pad: 1
    kernel_size: 3
    stride: 2
    weight_filler {
      type: "xavier"
    }
    bias_filler {
      type: "constant"
      value: 0
    }
  }
}
layer {
  name: "conv6_2_relu"
  type: "ReLU"
  bottom: "conv6_2"
  top: "conv6_2"
}
layer {
  name: "conv7_1"
  type: "Convolution"
  bottom: "conv6_2"
  top: "conv7_1"
  param {
    lr_mult: 1
    decay_mult: 1
  }
  param {
    lr_mult: 2
    decay_mult: 0
  }
  convolution_param {
    num_output: 128
    pad: 0
    kernel_size: 1
    stride: 1
    weight_filler {
      type: "xavier"
    }
    bias_filler {
      type: "constant"
      value: 0
    }
  }
}
layer {
  name: "conv7_1_relu"
  type: "ReLU"
  bottom: "conv7_1"
  top: "conv7_1"
}
layer {
  name: "conv7_2"
  type: "Convolution"
  bottom: "conv7_1"
  top: "conv7_2"
  param {
    lr_mult: 1
    decay_mult: 1
  }
  param {
    lr_mult: 2
    decay_mult: 0
  }
  convolution_param {
    num_output: 256
    pad: 1
    kernel_size: 3
    stride: 2
    weight_filler {
      type: "xavier"
    }
    bias_filler {
      type: "constant"
      value: 0
    }
  }
}
layer {
  name: "conv7_2_relu"
  type: "ReLU"
  bottom: "conv7_2"
  top: "conv7_2"
}
layer {
  name: "conv8_1"
  type: "Convolution"
  bottom: "conv7_2"
  top: "conv8_1"
  param {
    lr_mult: 1
    decay_mult: 1
  }
  param {
    lr_mult: 2
    decay_mult: 0
  }
  convolution_param {
    num_output: 128
    pad: 0
    kernel_size: 1
    stride: 1
    weight_filler {
      type: "xavier"
    }
    bias_filler {
      type: "constant"
      value: 0
    }
  }
}
layer {
  name: "conv8_1_relu"
  type: "ReLU"
  bottom: "conv8_1"
  top: "conv8_1"
}
layer {
  name: "conv8_2"
  type: "Convolution"
  bottom: "conv8_1"
  top: "conv8_2"
  param {
    lr_mult: 1
    decay_mult: 1
  }
  param {
    lr_mult: 2
    decay_mult: 0
  }
  convolution_param {
    num_output: 256
    pad: 1
    kernel_size: 3
    stride: 2
    weight_filler {
      type: "xavier"
    }
    bias_filler {
      type: "constant"
      value: 0
    }
  }
}
layer {
  name: "conv8_2_relu"
  type: "ReLU"
  bottom: "conv8_2"
  top: "conv8_2"
}
layer {
  name: "pool6"
  type: "Pooling"
  bottom: "conv8_2"
  top: "pool6"
  pooling_param {
    pool: AVE
    global_pooling: true
  }
}
layer {
  name: "conv4_3_norm"
  type: "Normalize"
  bottom: "conv4_3"
  top: "conv4_3_norm"
  norm_param {
    across_spatial: false
    scale_filler {
      type: "constant"
      value: 20
    }
    channel_shared: false
  }
}
layer {
  name: "conv4_3_norm_mbox_loc"
  type: "Convolution"
  bottom: "conv4_3_norm"
  top: "conv4_3_norm_mbox_loc"
  param {
    lr_mult: 1
    decay_mult: 1
  }
  param {
    lr_mult: 2
    decay_mult: 0
  }
  convolution_param {
    num_output: 12
    pad: 1
    kernel_size: 3
    stride: 1
    weight_filler {
      type: "xavier"
    }
    bias_filler {
      type: "constant"
      value: 0
    }
  }
}
layer {
  name: "conv4_3_norm_mbox_loc_perm"
  type: "Permute"
  bottom: "conv4_3_norm_mbox_loc"
  top: "conv4_3_norm_mbox_loc_perm"
  permute_param {
    order: 0
    order: 2
    order: 3
    order: 1
  }
}
layer {
  name: "conv4_3_norm_mbox_loc_flat"
  type: "Flatten"
  bottom: "conv4_3_norm_mbox_loc_perm"
  top: "conv4_3_norm_mbox_loc_flat"
  flatten_param {
    axis: 1
  }
}
layer {
  name: "conv4_3_norm_mbox_conf"
  type: "Convolution"
  bottom: "conv4_3_norm"
  top: "conv4_3_norm_mbox_conf"
  param {
    lr_mult: 1
    decay_mult: 1
  }
  param {
    lr_mult: 2
    decay_mult: 0
  }
  convolution_param {
    num_output: 6
    pad: 1
    kernel_size: 3
    stride: 1
    weight_filler {
      type: "xavier"
    }
    bias_filler {
      type: "constant"
      value: 0
    }
  }
}
layer {
  name: "conv4_3_norm_mbox_conf_perm"
  type: "Permute"
  bottom: "conv4_3_norm_mbox_conf"
  top: "conv4_3_norm_mbox_conf_perm"
  permute_param {
    order: 0
    order: 2
    order: 3
    order: 1
  }
}
layer {
  name: "conv4_3_norm_mbox_conf_flat"
  type: "Flatten"
  bottom: "conv4_3_norm_mbox_conf_perm"
  top: "conv4_3_norm_mbox_conf_flat"
  flatten_param {
    axis: 1
  }
}
layer {
  name: "conv4_3_norm_mbox_priorbox"
  type: "PriorBox"
  bottom: "conv4_3_norm"
  bottom: "data"
  top: "conv4_3_norm_mbox_priorbox"
  prior_box_param {
    min_size: 30
    aspect_ratio: 2
    flip: true
    clip: true
    variance: 0.1
    variance: 0.1
    variance: 0.2
    variance: 0.2
  }
}
layer {
  name: "fc7_mbox_loc"
  type: "Convolution"
  bottom: "fc7"
  top: "fc7_mbox_loc"
  param {
    lr_mult: 1
    decay_mult: 1
  }
  param {
    lr_mult: 2
    decay_mult: 0
  }
  convolution_param {
    num_output: 24
    pad: 1
    kernel_size: 3
    stride: 1
    weight_filler {
      type: "xavier"
    }
    bias_filler {
      type: "constant"
      value: 0
    }
  }
}
layer {
  name: "fc7_mbox_loc_perm"
  type: "Permute"
  bottom: "fc7_mbox_loc"
  top: "fc7_mbox_loc_perm"
  permute_param {
    order: 0
    order: 2
    order: 3
    order: 1
  }
}
layer {
  name: "fc7_mbox_loc_flat"
  type: "Flatten"
  bottom: "fc7_mbox_loc_perm"
  top: "fc7_mbox_loc_flat"
  flatten_param {
    axis: 1
  }
}
layer {
  name: "fc7_mbox_conf"
  type: "Convolution"
  bottom: "fc7"
  top: "fc7_mbox_conf"
  param {
    lr_mult: 1
    decay_mult: 1
  }
  param {
    lr_mult: 2
    decay_mult: 0
  }
  convolution_param {
    num_output: 12
    pad: 1
    kernel_size: 3
    stride: 1
    weight_filler {
      type: "xavier"
    }
    bias_filler {
      type: "constant"
      value: 0
    }
  }
}
layer {
  name: "fc7_mbox_conf_perm"
  type: "Permute"
  bottom: "fc7_mbox_conf"
  top: "fc7_mbox_conf_perm"
  permute_param {
    order: 0
    order: 2
    order: 3
    order: 1
  }
}
layer {
  name: "fc7_mbox_conf_flat"
  type: "Flatten"
  bottom: "fc7_mbox_conf_perm"
  top: "fc7_mbox_conf_flat"
  flatten_param {
    axis: 1
  }
}
layer {
  name: "fc7_mbox_priorbox"
  type: "PriorBox"
  bottom: "fc7"
  bottom: "data"
  top: "fc7_mbox_priorbox"
  prior_box_param {
    min_size: 60
    max_size: 114
    aspect_ratio: 2
    aspect_ratio: 3
    flip: true
    clip: true
    variance: 0.1
    variance: 0.1
    variance: 0.2
    variance: 0.2
  }
}
layer {
  name: "conv6_2_mbox_loc"
  type: "Convolution"
  bottom: "conv6_2"
  top: "conv6_2_mbox_loc"
  param {
    lr_mult: 1
    decay_mult: 1
  }
  param {
    lr_mult: 2
    decay_mult: 0
  }
  convolution_param {
    num_output: 24
    pad: 1
    kernel_size: 3
    stride: 1
    weight_filler {
      type: "xavier"
    }
    bias_filler {
      type: "constant"
      value: 0
    }
  }
}
layer {
  name: "conv6_2_mbox_loc_perm"
  type: "Permute"
  bottom: "conv6_2_mbox_loc"
  top: "conv6_2_mbox_loc_perm"
  permute_param {
    order: 0
    order: 2
    order: 3
    order: 1
  }
}
layer {
  name: "conv6_2_mbox_loc_flat"
  type: "Flatten"
  bottom: "conv6_2_mbox_loc_perm"
  top: "conv6_2_mbox_loc_flat"
  flatten_param {
    axis: 1
  }
}
layer {
  name: "conv6_2_mbox_conf"
  type: "Convolution"
  bottom: "conv6_2"
  top: "conv6_2_mbox_conf"
  param {
    lr_mult: 1
    decay_mult: 1
  }
  param {
    lr_mult: 2
    decay_mult: 0
  }
  convolution_param {
    num_output: 12
    pad: 1
    kernel_size: 3
    stride: 1
    weight_filler {
      type: "xavier"
    }
    bias_filler {
      type: "constant"
      value: 0
    }
  }
}
layer {
  name: "conv6_2_mbox_conf_perm"
  type: "Permute"
  bottom: "conv6_2_mbox_conf"
  top: "conv6_2_mbox_conf_perm"
  permute_param {
    order: 0
    order: 2
    order: 3
    order: 1
  }
}
layer {
  name: "conv6_2_mbox_conf_flat"
  type: "Flatten"
  bottom: "conv6_2_mbox_conf_perm"
  top: "conv6_2_mbox_conf_flat"
  flatten_param {
    axis: 1
  }
}
layer {
  name: "conv6_2_mbox_priorbox"
  type: "PriorBox"
  bottom: "conv6_2"
  bottom: "data"
  top: "conv6_2_mbox_priorbox"
  prior_box_param {
    min_size: 114
    max_size: 168
    aspect_ratio: 2
    aspect_ratio: 3
    flip: true
    clip: true
    variance: 0.1
    variance: 0.1
    variance: 0.2
    variance: 0.2
  }
}
layer {
  name: "conv7_2_mbox_loc"
  type: "Convolution"
  bottom: "conv7_2"
  top: "conv7_2_mbox_loc"
  param {
    lr_mult: 1
    decay_mult: 1
  }
  param {
    lr_mult: 2
    decay_mult: 0
  }
  convolution_param {
    num_output: 24
    pad: 1
    kernel_size: 3
    stride: 1
    weight_filler {
      type: "xavier"
    }
    bias_filler {
      type: "constant"
      value: 0
    }
  }
}
layer {
  name: "conv7_2_mbox_loc_perm"
  type: "Permute"
  bottom: "conv7_2_mbox_loc"
  top: "conv7_2_mbox_loc_perm"
  permute_param {
    order: 0
    order: 2
    order: 3
    order: 1
  }
}
layer {
  name: "conv7_2_mbox_loc_flat"
  type: "Flatten"
  bottom: "conv7_2_mbox_loc_perm"
  top: "conv7_2_mbox_loc_flat"
  flatten_param {
    axis: 1
  }
}
layer {
  name: "conv7_2_mbox_conf"
  type: "Convolution"
  bottom: "conv7_2"
  top: "conv7_2_mbox_conf"
  param {
    lr_mult: 1
    decay_mult: 1
  }
  param {
    lr_mult: 2
    decay_mult: 0
  }
  convolution_param {
    num_output: 12
    pad: 1
    kernel_size: 3
    stride: 1
    weight_filler {
      type: "xavier"
    }
    bias_filler {
      type: "constant"
      value: 0
    }
  }
}
layer {
  name: "conv7_2_mbox_conf_perm"
  type: "Permute"
  bottom: "conv7_2_mbox_conf"
  top: "conv7_2_mbox_conf_perm"
  permute_param {
    order: 0
    order: 2
    order: 3
    order: 1
  }
}
layer {
  name: "conv7_2_mbox_conf_flat"
  type: "Flatten"
  bottom: "conv7_2_mbox_conf_perm"
  top: "conv7_2_mbox_conf_flat"
  flatten_param {
    axis: 1
  }
}
layer {
  name: "conv7_2_mbox_priorbox"
  type: "PriorBox"
  bottom: "conv7_2"
  bottom: "data"
  top: "conv7_2_mbox_priorbox"
  prior_box_param {
    min_size: 168
    max_size: 222
    aspect_ratio: 2
    aspect_ratio: 3
    flip: true
    clip: true
    variance: 0.1
    variance: 0.1
    variance: 0.2
    variance: 0.2
  }
}
layer {
  name: "conv8_2_mbox_loc"
  type: "Convolution"
  bottom: "conv8_2"
  top: "conv8_2_mbox_loc"
  param {
    lr_mult: 1
    decay_mult: 1
  }
  param {
    lr_mult: 2
    decay_mult: 0
  }
  convolution_param {
    num_output: 24
    pad: 1
    kernel_size: 3
    stride: 1
    weight_filler {
      type: "xavier"
    }
    bias_filler {
      type: "constant"
      value: 0
    }
  }
}
layer {
  name: "conv8_2_mbox_loc_perm"
  type: "Permute"
  bottom: "conv8_2_mbox_loc"
  top: "conv8_2_mbox_loc_perm"
  permute_param {
    order: 0
    order: 2
    order: 3
    order: 1
  }
}
layer {
  name: "conv8_2_mbox_loc_flat"
  type: "Flatten"
  bottom: "conv8_2_mbox_loc_perm"
  top: "conv8_2_mbox_loc_flat"
  flatten_param {
    axis: 1
  }
}
layer {
  name: "conv8_2_mbox_conf"
  type: "Convolution"
  bottom: "conv8_2"
  top: "conv8_2_mbox_conf"
  param {
    lr_mult: 1
    decay_mult: 1
  }
  param {
    lr_mult: 2
    decay_mult: 0
  }
  convolution_param {
    num_output: 12
    pad: 1
    kernel_size: 3
    stride: 1
    weight_filler {
      type: "xavier"
    }
    bias_filler {
      type: "constant"
      value: 0
    }
  }
}
layer {
  name: "conv8_2_mbox_conf_perm"
  type: "Permute"
  bottom: "conv8_2_mbox_conf"
  top: "conv8_2_mbox_conf_perm"
  permute_param {
    order: 0
    order: 2
    order: 3
    order: 1
  }
}
layer {
  name: "conv8_2_mbox_conf_flat"
  type: "Flatten"
  bottom: "conv8_2_mbox_conf_perm"
  top: "conv8_2_mbox_conf_flat"
  flatten_param {
    axis: 1
  }
}
layer {
  name: "conv8_2_mbox_priorbox"
  type: "PriorBox"
  bottom: "conv8_2"
  bottom: "data"
  top: "conv8_2_mbox_priorbox"
  prior_box_param {
    min_size: 222
    max_size: 276
    aspect_ratio: 2
    aspect_ratio: 3
    flip: true
    clip: true
    variance: 0.1
    variance: 0.1
    variance: 0.2
    variance: 0.2
  }
}
layer {
  name: "pool6_mbox_loc"
  type: "Convolution"
  bottom: "pool6"
  top: "pool6_mbox_loc"
  param {
    lr_mult: 1
    decay_mult: 1
  }
  param {
    lr_mult: 2
    decay_mult: 0
  }
  convolution_param {
    num_output: 24
    pad: 1
    kernel_size: 3
    stride: 1
    weight_filler {
      type: "xavier"
    }
    bias_filler {
      type: "constant"
      value: 0
    }
  }
}
layer {
  name: "pool6_mbox_loc_perm"
  type: "Permute"
  bottom: "pool6_mbox_loc"
  top: "pool6_mbox_loc_perm"
  permute_param {
    order: 0
    order: 2
    order: 3
    order: 1
  }
}
layer {
  name: "pool6_mbox_loc_flat"
  type: "Flatten"
  bottom: "pool6_mbox_loc_perm"
  top: "pool6_mbox_loc_flat"
  flatten_param {
    axis: 1
  }
}
layer {
  name: "pool6_mbox_conf"
  type: "Convolution"
  bottom: "pool6"
  top: "pool6_mbox_conf"
  param {
    lr_mult: 1
    decay_mult: 1
  }
  param {
    lr_mult: 2
    decay_mult: 0
  }
  convolution_param {
    num_output: 12
    pad: 1
    kernel_size: 3
    stride: 1
    weight_filler {
      type: "xavier"
    }
    bias_filler {
      type: "constant"
      value: 0
    }
  }
}
layer {
  name: "pool6_mbox_conf_perm"
  type: "Permute"
  bottom: "pool6_mbox_conf"
  top: "pool6_mbox_conf_perm"
  permute_param {
    order: 0
    order: 2
    order: 3
    order: 1
  }
}
layer {
  name: "pool6_mbox_conf_flat"
  type: "Flatten"
  bottom: "pool6_mbox_conf_perm"
  top: "pool6_mbox_conf_flat"
  flatten_param {
    axis: 1
  }
}
layer {
  name: "pool6_mbox_priorbox"
  type: "PriorBox"
  bottom: "pool6"
  bottom: "data"
  top: "pool6_mbox_priorbox"
  prior_box_param {
    min_size: 276
    max_size: 330
    aspect_ratio: 2
    aspect_ratio: 3
    flip: true
    clip: true
    variance: 0.1
    variance: 0.1
    variance: 0.2
    variance: 0.2
  }
}
layer {
  name: "mbox_loc"
  type: "Concat"
  bottom: "conv4_3_norm_mbox_loc_flat"
  bottom: "fc7_mbox_loc_flat"
  bottom: "conv6_2_mbox_loc_flat"
  bottom: "conv7_2_mbox_loc_flat"
  bottom: "conv8_2_mbox_loc_flat"
  bottom: "pool6_mbox_loc_flat"
  top: "mbox_loc"
  concat_param {
    axis: 1
  }
}
layer {
  name: "mbox_conf"
  type: "Concat"
  bottom: "conv4_3_norm_mbox_conf_flat"
  bottom: "fc7_mbox_conf_flat"
  bottom: "conv6_2_mbox_conf_flat"
  bottom: "conv7_2_mbox_conf_flat"
  bottom: "conv8_2_mbox_conf_flat"
  bottom: "pool6_mbox_conf_flat"
  top: "mbox_conf"
  concat_param {
    axis: 1
  }
}
layer {
  name: "mbox_priorbox"
  type: "Concat"
  bottom: "conv4_3_norm_mbox_priorbox"
  bottom: "fc7_mbox_priorbox"
  bottom: "conv6_2_mbox_priorbox"
  bottom: "conv7_2_mbox_priorbox"
  bottom: "conv8_2_mbox_priorbox"
  bottom: "pool6_mbox_priorbox"
  top: "mbox_priorbox"
  concat_param {
    axis: 2
  }
}
layer {
  name: "mbox_conf_reshape"
  type: "Reshape"
  bottom: "mbox_conf"
  top: "mbox_conf_reshape"
  reshape_param {
    shape {
      dim: 0
      dim: -1
      dim: 2
    }
  }
}
layer {
  name: "mbox_conf_softmax"
  type: "Softmax"
  bottom: "mbox_conf_reshape"
  top: "mbox_conf_softmax"
  softmax_param {
    axis: 2
  }
}
layer {
  name: "mbox_conf_flatten"
  type: "Flatten"
  bottom: "mbox_conf_softmax"
  top: "mbox_conf_flatten"
  flatten_param {
    axis: 1
  }
}
layer {
  name: "detection_out"
  type: "DetectionOutput"
  bottom: "mbox_loc"
  bottom: "mbox_conf_flatten"
  bottom: "mbox_priorbox"
  top: "detection_out"
  include {
    phase: TEST
  }
  detection_output_param {
    num_classes: 2
    share_location: true
    background_label_id: 0
    nms_param {
      nms_threshold: 0.45
      top_k: 400
    }
    save_output_param {
      output_directory: "/home/lee/data/VOCdevkit/results/VOC2007/SSD_300x300/Main"
      output_name_prefix: "comp4_det_test_"
      output_format: "VOC"
      label_map_file: "data/VOC2007/labelmap_voc.prototxt"
      name_size_file: "data/VOC2007/test_name_size.txt"
      num_test_image: 801
    }
    code_type: CENTER_SIZE
    keep_top_k: 200
    confidence_threshold: 0.01
  }
}
layer {
  name: "detection_eval"
  type: "DetectionEvaluate"
  bottom: "detection_out"
  bottom: "label"
  top: "detection_eval"
  include {
    phase: TEST
  }
  detection_evaluate_param {
    num_classes: 2
    background_label_id: 0
    overlap_threshold: 0.5
    evaluate_difficult_gt: false
    name_size_file: "data/VOC2007/test_name_size.txt"
  }
}
I0808 16:28:37.065071 16855 layer_factory.hpp:77] Creating layer data
I0808 16:28:37.065168 16855 net.cpp:91] Creating Layer data
I0808 16:28:37.065182 16855 net.cpp:399] data -> data
I0808 16:28:37.065193 16855 net.cpp:399] data -> label
I0808 16:28:37.066808 16863 db_lmdb.cpp:35] Opened lmdb examples/VOC2007/VOC2007_test_lmdb
I0808 16:28:37.072516 16855 annotated_data_layer.cpp:52] output data size: 1,3,300,300
I0808 16:28:37.077337 16855 net.cpp:141] Setting up data
I0808 16:28:37.077378 16855 net.cpp:148] Top shape: 1 3 300 300 (270000)
I0808 16:28:37.077395 16855 net.cpp:148] Top shape: 1 1 1 8 (8)
I0808 16:28:37.077404 16855 net.cpp:156] Memory required for data: 1080032
I0808 16:28:37.077417 16855 layer_factory.hpp:77] Creating layer data_data_0_split
I0808 16:28:37.077440 16855 net.cpp:91] Creating Layer data_data_0_split
I0808 16:28:37.077455 16855 net.cpp:425] data_data_0_split <- data
I0808 16:28:37.077471 16855 net.cpp:399] data_data_0_split -> data_data_0_split_0
I0808 16:28:37.077493 16855 net.cpp:399] data_data_0_split -> data_data_0_split_1
I0808 16:28:37.077512 16855 net.cpp:399] data_data_0_split -> data_data_0_split_2
I0808 16:28:37.077530 16855 net.cpp:399] data_data_0_split -> data_data_0_split_3
I0808 16:28:37.077548 16855 net.cpp:399] data_data_0_split -> data_data_0_split_4
I0808 16:28:37.077564 16855 net.cpp:399] data_data_0_split -> data_data_0_split_5
I0808 16:28:37.077580 16855 net.cpp:399] data_data_0_split -> data_data_0_split_6
I0808 16:28:37.077944 16855 net.cpp:141] Setting up data_data_0_split
I0808 16:28:37.077966 16855 net.cpp:148] Top shape: 1 3 300 300 (270000)
I0808 16:28:37.077978 16855 net.cpp:148] Top shape: 1 3 300 300 (270000)
I0808 16:28:37.077991 16855 net.cpp:148] Top shape: 1 3 300 300 (270000)
I0808 16:28:37.078001 16855 net.cpp:148] Top shape: 1 3 300 300 (270000)
I0808 16:28:37.078011 16855 net.cpp:148] Top shape: 1 3 300 300 (270000)
I0808 16:28:37.078021 16855 net.cpp:148] Top shape: 1 3 300 300 (270000)
I0808 16:28:37.078032 16855 net.cpp:148] Top shape: 1 3 300 300 (270000)
I0808 16:28:37.078044 16855 net.cpp:156] Memory required for data: 8640032
I0808 16:28:37.078054 16855 layer_factory.hpp:77] Creating layer conv1_1
I0808 16:28:37.078095 16855 net.cpp:91] Creating Layer conv1_1
I0808 16:28:37.078106 16855 net.cpp:425] conv1_1 <- data_data_0_split_0
I0808 16:28:37.078122 16855 net.cpp:399] conv1_1 -> conv1_1
I0808 16:28:37.080981 16855 net.cpp:141] Setting up conv1_1
I0808 16:28:37.081014 16855 net.cpp:148] Top shape: 1 64 300 300 (5760000)
I0808 16:28:37.081025 16855 net.cpp:156] Memory required for data: 31680032
I0808 16:28:37.081084 16855 layer_factory.hpp:77] Creating layer relu1_1
I0808 16:28:37.081104 16855 net.cpp:91] Creating Layer relu1_1
I0808 16:28:37.081120 16855 net.cpp:425] relu1_1 <- conv1_1
I0808 16:28:37.081136 16855 net.cpp:386] relu1_1 -> conv1_1 (in-place)
I0808 16:28:37.081755 16855 net.cpp:141] Setting up relu1_1
I0808 16:28:37.081791 16855 net.cpp:148] Top shape: 1 64 300 300 (5760000)
I0808 16:28:37.081801 16855 net.cpp:156] Memory required for data: 54720032
I0808 16:28:37.081812 16855 layer_factory.hpp:77] Creating layer conv1_2
I0808 16:28:37.081836 16855 net.cpp:91] Creating Layer conv1_2
I0808 16:28:37.081850 16855 net.cpp:425] conv1_2 <- conv1_1
I0808 16:28:37.081866 16855 net.cpp:399] conv1_2 -> conv1_2
I0808 16:28:37.084167 16855 net.cpp:141] Setting up conv1_2
I0808 16:28:37.084185 16855 net.cpp:148] Top shape: 1 64 300 300 (5760000)
I0808 16:28:37.084192 16855 net.cpp:156] Memory required for data: 77760032
I0808 16:28:37.084204 16855 layer_factory.hpp:77] Creating layer relu1_2
I0808 16:28:37.084213 16855 net.cpp:91] Creating Layer relu1_2
I0808 16:28:37.084219 16855 net.cpp:425] relu1_2 <- conv1_2
I0808 16:28:37.084226 16855 net.cpp:386] relu1_2 -> conv1_2 (in-place)
I0808 16:28:37.084578 16855 net.cpp:141] Setting up relu1_2
I0808 16:28:37.084594 16855 net.cpp:148] Top shape: 1 64 300 300 (5760000)
I0808 16:28:37.084599 16855 net.cpp:156] Memory required for data: 100800032
I0808 16:28:37.084605 16855 layer_factory.hpp:77] Creating layer pool1
I0808 16:28:37.084614 16855 net.cpp:91] Creating Layer pool1
I0808 16:28:37.084620 16855 net.cpp:425] pool1 <- conv1_2
I0808 16:28:37.084628 16855 net.cpp:399] pool1 -> pool1
I0808 16:28:37.084688 16855 net.cpp:141] Setting up pool1
I0808 16:28:37.084698 16855 net.cpp:148] Top shape: 1 64 150 150 (1440000)
I0808 16:28:37.084704 16855 net.cpp:156] Memory required for data: 106560032
I0808 16:28:37.084709 16855 layer_factory.hpp:77] Creating layer conv2_1
I0808 16:28:37.084720 16855 net.cpp:91] Creating Layer conv2_1
I0808 16:28:37.084729 16855 net.cpp:425] conv2_1 <- pool1
I0808 16:28:37.084738 16855 net.cpp:399] conv2_1 -> conv2_1
I0808 16:28:37.086668 16855 net.cpp:141] Setting up conv2_1
I0808 16:28:37.086700 16855 net.cpp:148] Top shape: 1 128 150 150 (2880000)
I0808 16:28:37.086705 16855 net.cpp:156] Memory required for data: 118080032
I0808 16:28:37.086719 16855 layer_factory.hpp:77] Creating layer relu2_1
I0808 16:28:37.086729 16855 net.cpp:91] Creating Layer relu2_1
I0808 16:28:37.086735 16855 net.cpp:425] relu2_1 <- conv2_1
I0808 16:28:37.086742 16855 net.cpp:386] relu2_1 -> conv2_1 (in-place)
I0808 16:28:37.086957 16855 net.cpp:141] Setting up relu2_1
I0808 16:28:37.086969 16855 net.cpp:148] Top shape: 1 128 150 150 (2880000)
I0808 16:28:37.086974 16855 net.cpp:156] Memory required for data: 129600032
I0808 16:28:37.086978 16855 layer_factory.hpp:77] Creating layer conv2_2
I0808 16:28:37.086990 16855 net.cpp:91] Creating Layer conv2_2
I0808 16:28:37.086997 16855 net.cpp:425] conv2_2 <- conv2_1
I0808 16:28:37.087018 16855 net.cpp:399] conv2_2 -> conv2_2
I0808 16:28:37.089421 16855 net.cpp:141] Setting up conv2_2
I0808 16:28:37.089437 16855 net.cpp:148] Top shape: 1 128 150 150 (2880000)
I0808 16:28:37.089443 16855 net.cpp:156] Memory required for data: 141120032
I0808 16:28:37.089452 16855 layer_factory.hpp:77] Creating layer relu2_2
I0808 16:28:37.089460 16855 net.cpp:91] Creating Layer relu2_2
I0808 16:28:37.089465 16855 net.cpp:425] relu2_2 <- conv2_2
I0808 16:28:37.089471 16855 net.cpp:386] relu2_2 -> conv2_2 (in-place)
I0808 16:28:37.089781 16855 net.cpp:141] Setting up relu2_2
I0808 16:28:37.089797 16855 net.cpp:148] Top shape: 1 128 150 150 (2880000)
I0808 16:28:37.089802 16855 net.cpp:156] Memory required for data: 152640032
I0808 16:28:37.089807 16855 layer_factory.hpp:77] Creating layer pool2
I0808 16:28:37.089814 16855 net.cpp:91] Creating Layer pool2
I0808 16:28:37.089820 16855 net.cpp:425] pool2 <- conv2_2
I0808 16:28:37.089826 16855 net.cpp:399] pool2 -> pool2
I0808 16:28:37.089882 16855 net.cpp:141] Setting up pool2
I0808 16:28:37.089905 16855 net.cpp:148] Top shape: 1 128 75 75 (720000)
I0808 16:28:37.089910 16855 net.cpp:156] Memory required for data: 155520032
I0808 16:28:37.089915 16855 layer_factory.hpp:77] Creating layer conv3_1
I0808 16:28:37.089926 16855 net.cpp:91] Creating Layer conv3_1
I0808 16:28:37.089931 16855 net.cpp:425] conv3_1 <- pool2
I0808 16:28:37.089938 16855 net.cpp:399] conv3_1 -> conv3_1
I0808 16:28:37.095402 16855 net.cpp:141] Setting up conv3_1
I0808 16:28:37.095430 16855 net.cpp:148] Top shape: 1 256 75 75 (1440000)
I0808 16:28:37.095435 16855 net.cpp:156] Memory required for data: 161280032
I0808 16:28:37.095459 16855 layer_factory.hpp:77] Creating layer relu3_1
I0808 16:28:37.095469 16855 net.cpp:91] Creating Layer relu3_1
I0808 16:28:37.095475 16855 net.cpp:425] relu3_1 <- conv3_1
I0808 16:28:37.095482 16855 net.cpp:386] relu3_1 -> conv3_1 (in-place)
I0808 16:28:37.095823 16855 net.cpp:141] Setting up relu3_1
I0808 16:28:37.095849 16855 net.cpp:148] Top shape: 1 256 75 75 (1440000)
I0808 16:28:37.095854 16855 net.cpp:156] Memory required for data: 167040032
I0808 16:28:37.095860 16855 layer_factory.hpp:77] Creating layer conv3_2
I0808 16:28:37.095871 16855 net.cpp:91] Creating Layer conv3_2
I0808 16:28:37.095887 16855 net.cpp:425] conv3_2 <- conv3_1
I0808 16:28:37.095896 16855 net.cpp:399] conv3_2 -> conv3_2
I0808 16:28:37.101018 16855 net.cpp:141] Setting up conv3_2
I0808 16:28:37.101047 16855 net.cpp:148] Top shape: 1 256 75 75 (1440000)
I0808 16:28:37.101053 16855 net.cpp:156] Memory required for data: 172800032
I0808 16:28:37.101061 16855 layer_factory.hpp:77] Creating layer relu3_2
I0808 16:28:37.101070 16855 net.cpp:91] Creating Layer relu3_2
I0808 16:28:37.101075 16855 net.cpp:425] relu3_2 <- conv3_2
I0808 16:28:37.101083 16855 net.cpp:386] relu3_2 -> conv3_2 (in-place)
I0808 16:28:37.101269 16855 net.cpp:141] Setting up relu3_2
I0808 16:28:37.101281 16855 net.cpp:148] Top shape: 1 256 75 75 (1440000)
I0808 16:28:37.101285 16855 net.cpp:156] Memory required for data: 178560032
I0808 16:28:37.101290 16855 layer_factory.hpp:77] Creating layer conv3_3
I0808 16:28:37.101305 16855 net.cpp:91] Creating Layer conv3_3
I0808 16:28:37.101313 16855 net.cpp:425] conv3_3 <- conv3_2
I0808 16:28:37.101333 16855 net.cpp:399] conv3_3 -> conv3_3
I0808 16:28:37.106564 16855 net.cpp:141] Setting up conv3_3
I0808 16:28:37.106592 16855 net.cpp:148] Top shape: 1 256 75 75 (1440000)
I0808 16:28:37.106597 16855 net.cpp:156] Memory required for data: 184320032
I0808 16:28:37.106606 16855 layer_factory.hpp:77] Creating layer relu3_3
I0808 16:28:37.106613 16855 net.cpp:91] Creating Layer relu3_3
I0808 16:28:37.106619 16855 net.cpp:425] relu3_3 <- conv3_3
I0808 16:28:37.106626 16855 net.cpp:386] relu3_3 -> conv3_3 (in-place)
I0808 16:28:37.106930 16855 net.cpp:141] Setting up relu3_3
I0808 16:28:37.106956 16855 net.cpp:148] Top shape: 1 256 75 75 (1440000)
I0808 16:28:37.106972 16855 net.cpp:156] Memory required for data: 190080032
I0808 16:28:37.106977 16855 layer_factory.hpp:77] Creating layer pool3
I0808 16:28:37.106984 16855 net.cpp:91] Creating Layer pool3
I0808 16:28:37.106991 16855 net.cpp:425] pool3 <- conv3_3
I0808 16:28:37.106999 16855 net.cpp:399] pool3 -> pool3
I0808 16:28:37.107055 16855 net.cpp:141] Setting up pool3
I0808 16:28:37.107064 16855 net.cpp:148] Top shape: 1 256 38 38 (369664)
I0808 16:28:37.107069 16855 net.cpp:156] Memory required for data: 191558688
I0808 16:28:37.107074 16855 layer_factory.hpp:77] Creating layer conv4_1
I0808 16:28:37.107085 16855 net.cpp:91] Creating Layer conv4_1
I0808 16:28:37.107092 16855 net.cpp:425] conv4_1 <- pool3
I0808 16:28:37.107111 16855 net.cpp:399] conv4_1 -> conv4_1
I0808 16:28:37.115943 16855 net.cpp:141] Setting up conv4_1
I0808 16:28:37.115972 16855 net.cpp:148] Top shape: 1 512 38 38 (739328)
I0808 16:28:37.115978 16855 net.cpp:156] Memory required for data: 194516000
I0808 16:28:37.115988 16855 layer_factory.hpp:77] Creating layer relu4_1
I0808 16:28:37.115996 16855 net.cpp:91] Creating Layer relu4_1
I0808 16:28:37.116001 16855 net.cpp:425] relu4_1 <- conv4_1
I0808 16:28:37.116024 16855 net.cpp:386] relu4_1 -> conv4_1 (in-place)
I0808 16:28:37.116363 16855 net.cpp:141] Setting up relu4_1
I0808 16:28:37.116375 16855 net.cpp:148] Top shape: 1 512 38 38 (739328)
I0808 16:28:37.116391 16855 net.cpp:156] Memory required for data: 197473312
I0808 16:28:37.116396 16855 layer_factory.hpp:77] Creating layer conv4_2
I0808 16:28:37.116410 16855 net.cpp:91] Creating Layer conv4_2
I0808 16:28:37.116415 16855 net.cpp:425] conv4_2 <- conv4_1
I0808 16:28:37.116423 16855 net.cpp:399] conv4_2 -> conv4_2
I0808 16:28:37.134433 16855 net.cpp:141] Setting up conv4_2
I0808 16:28:37.134459 16855 net.cpp:148] Top shape: 1 512 38 38 (739328)
I0808 16:28:37.134464 16855 net.cpp:156] Memory required for data: 200430624
I0808 16:28:37.134479 16855 layer_factory.hpp:77] Creating layer relu4_2
I0808 16:28:37.134491 16855 net.cpp:91] Creating Layer relu4_2
I0808 16:28:37.134497 16855 net.cpp:425] relu4_2 <- conv4_2
I0808 16:28:37.134505 16855 net.cpp:386] relu4_2 -> conv4_2 (in-place)
I0808 16:28:37.134682 16855 net.cpp:141] Setting up relu4_2
I0808 16:28:37.134694 16855 net.cpp:148] Top shape: 1 512 38 38 (739328)
I0808 16:28:37.134698 16855 net.cpp:156] Memory required for data: 203387936
I0808 16:28:37.134703 16855 layer_factory.hpp:77] Creating layer conv4_3
I0808 16:28:37.134716 16855 net.cpp:91] Creating Layer conv4_3
I0808 16:28:37.134721 16855 net.cpp:425] conv4_3 <- conv4_2
I0808 16:28:37.134729 16855 net.cpp:399] conv4_3 -> conv4_3
I0808 16:28:37.151172 16855 net.cpp:141] Setting up conv4_3
I0808 16:28:37.151192 16855 net.cpp:148] Top shape: 1 512 38 38 (739328)
I0808 16:28:37.151198 16855 net.cpp:156] Memory required for data: 206345248
I0808 16:28:37.151207 16855 layer_factory.hpp:77] Creating layer relu4_3
I0808 16:28:37.151218 16855 net.cpp:91] Creating Layer relu4_3
I0808 16:28:37.151223 16855 net.cpp:425] relu4_3 <- conv4_3
I0808 16:28:37.151229 16855 net.cpp:386] relu4_3 -> conv4_3 (in-place)
I0808 16:28:37.151525 16855 net.cpp:141] Setting up relu4_3
I0808 16:28:37.151540 16855 net.cpp:148] Top shape: 1 512 38 38 (739328)
I0808 16:28:37.151545 16855 net.cpp:156] Memory required for data: 209302560
I0808 16:28:37.151549 16855 layer_factory.hpp:77] Creating layer conv4_3_relu4_3_0_split
I0808 16:28:37.151556 16855 net.cpp:91] Creating Layer conv4_3_relu4_3_0_split
I0808 16:28:37.151561 16855 net.cpp:425] conv4_3_relu4_3_0_split <- conv4_3
I0808 16:28:37.151567 16855 net.cpp:399] conv4_3_relu4_3_0_split -> conv4_3_relu4_3_0_split_0
I0808 16:28:37.151576 16855 net.cpp:399] conv4_3_relu4_3_0_split -> conv4_3_relu4_3_0_split_1
I0808 16:28:37.151628 16855 net.cpp:141] Setting up conv4_3_relu4_3_0_split
I0808 16:28:37.151634 16855 net.cpp:148] Top shape: 1 512 38 38 (739328)
I0808 16:28:37.151639 16855 net.cpp:148] Top shape: 1 512 38 38 (739328)
I0808 16:28:37.151643 16855 net.cpp:156] Memory required for data: 215217184
I0808 16:28:37.151648 16855 layer_factory.hpp:77] Creating layer pool4
I0808 16:28:37.151655 16855 net.cpp:91] Creating Layer pool4
I0808 16:28:37.151660 16855 net.cpp:425] pool4 <- conv4_3_relu4_3_0_split_0
I0808 16:28:37.151667 16855 net.cpp:399] pool4 -> pool4
I0808 16:28:37.151715 16855 net.cpp:141] Setting up pool4
I0808 16:28:37.151721 16855 net.cpp:148] Top shape: 1 512 19 19 (184832)
I0808 16:28:37.151724 16855 net.cpp:156] Memory required for data: 215956512
I0808 16:28:37.151728 16855 layer_factory.hpp:77] Creating layer conv5_1
I0808 16:28:37.151741 16855 net.cpp:91] Creating Layer conv5_1
I0808 16:28:37.151746 16855 net.cpp:425] conv5_1 <- pool4
I0808 16:28:37.151753 16855 net.cpp:399] conv5_1 -> conv5_1
I0808 16:28:37.169231 16855 net.cpp:141] Setting up conv5_1
I0808 16:28:37.169260 16855 net.cpp:148] Top shape: 1 512 19 19 (184832)
I0808 16:28:37.169265 16855 net.cpp:156] Memory required for data: 216695840
I0808 16:28:37.169275 16855 layer_factory.hpp:77] Creating layer relu5_1
I0808 16:28:37.169288 16855 net.cpp:91] Creating Layer relu5_1
I0808 16:28:37.169294 16855 net.cpp:425] relu5_1 <- conv5_1
I0808 16:28:37.169301 16855 net.cpp:386] relu5_1 -> conv5_1 (in-place)
I0808 16:28:37.169623 16855 net.cpp:141] Setting up relu5_1
I0808 16:28:37.169637 16855 net.cpp:148] Top shape: 1 512 19 19 (184832)
I0808 16:28:37.169641 16855 net.cpp:156] Memory required for data: 217435168
I0808 16:28:37.169646 16855 layer_factory.hpp:77] Creating layer conv5_2
I0808 16:28:37.169659 16855 net.cpp:91] Creating Layer conv5_2
I0808 16:28:37.169664 16855 net.cpp:425] conv5_2 <- conv5_1
I0808 16:28:37.169673 16855 net.cpp:399] conv5_2 -> conv5_2
I0808 16:28:37.186831 16855 net.cpp:141] Setting up conv5_2
I0808 16:28:37.186869 16855 net.cpp:148] Top shape: 1 512 19 19 (184832)
I0808 16:28:37.186875 16855 net.cpp:156] Memory required for data: 218174496
I0808 16:28:37.186885 16855 layer_factory.hpp:77] Creating layer relu5_2
I0808 16:28:37.186895 16855 net.cpp:91] Creating Layer relu5_2
I0808 16:28:37.186902 16855 net.cpp:425] relu5_2 <- conv5_2
I0808 16:28:37.186911 16855 net.cpp:386] relu5_2 -> conv5_2 (in-place)
I0808 16:28:37.187119 16855 net.cpp:141] Setting up relu5_2
I0808 16:28:37.187130 16855 net.cpp:148] Top shape: 1 512 19 19 (184832)
I0808 16:28:37.187135 16855 net.cpp:156] Memory required for data: 218913824
I0808 16:28:37.187140 16855 layer_factory.hpp:77] Creating layer conv5_3
I0808 16:28:37.187153 16855 net.cpp:91] Creating Layer conv5_3
I0808 16:28:37.187160 16855 net.cpp:425] conv5_3 <- conv5_2
I0808 16:28:37.187168 16855 net.cpp:399] conv5_3 -> conv5_3
I0808 16:28:37.203886 16855 net.cpp:141] Setting up conv5_3
I0808 16:28:37.203909 16855 net.cpp:148] Top shape: 1 512 19 19 (184832)
I0808 16:28:37.203914 16855 net.cpp:156] Memory required for data: 219653152
I0808 16:28:37.203922 16855 layer_factory.hpp:77] Creating layer relu5_3
I0808 16:28:37.203941 16855 net.cpp:91] Creating Layer relu5_3
I0808 16:28:37.203948 16855 net.cpp:425] relu5_3 <- conv5_3
I0808 16:28:37.203953 16855 net.cpp:386] relu5_3 -> conv5_3 (in-place)
I0808 16:28:37.204260 16855 net.cpp:141] Setting up relu5_3
I0808 16:28:37.204277 16855 net.cpp:148] Top shape: 1 512 19 19 (184832)
I0808 16:28:37.204282 16855 net.cpp:156] Memory required for data: 220392480
I0808 16:28:37.204287 16855 layer_factory.hpp:77] Creating layer pool5
I0808 16:28:37.204295 16855 net.cpp:91] Creating Layer pool5
I0808 16:28:37.204300 16855 net.cpp:425] pool5 <- conv5_3
I0808 16:28:37.204308 16855 net.cpp:399] pool5 -> pool5
I0808 16:28:37.204366 16855 net.cpp:141] Setting up pool5
I0808 16:28:37.204375 16855 net.cpp:148] Top shape: 1 512 19 19 (184832)
I0808 16:28:37.204380 16855 net.cpp:156] Memory required for data: 221131808
I0808 16:28:37.204385 16855 layer_factory.hpp:77] Creating layer fc6
I0808 16:28:37.204396 16855 net.cpp:91] Creating Layer fc6
I0808 16:28:37.204402 16855 net.cpp:425] fc6 <- pool5
I0808 16:28:37.204409 16855 net.cpp:399] fc6 -> fc6
I0808 16:28:37.238107 16855 net.cpp:141] Setting up fc6
I0808 16:28:37.238143 16855 net.cpp:148] Top shape: 1 1024 19 19 (369664)
I0808 16:28:37.238148 16855 net.cpp:156] Memory required for data: 222610464
I0808 16:28:37.238158 16855 layer_factory.hpp:77] Creating layer relu6
I0808 16:28:37.238173 16855 net.cpp:91] Creating Layer relu6
I0808 16:28:37.238179 16855 net.cpp:425] relu6 <- fc6
I0808 16:28:37.238186 16855 net.cpp:386] relu6 -> fc6 (in-place)
I0808 16:28:37.238440 16855 net.cpp:141] Setting up relu6
I0808 16:28:37.238451 16855 net.cpp:148] Top shape: 1 1024 19 19 (369664)
I0808 16:28:37.238456 16855 net.cpp:156] Memory required for data: 224089120
I0808 16:28:37.238461 16855 layer_factory.hpp:77] Creating layer fc7
I0808 16:28:37.238476 16855 net.cpp:91] Creating Layer fc7
I0808 16:28:37.238481 16855 net.cpp:425] fc7 <- fc6
I0808 16:28:37.238487 16855 net.cpp:399] fc7 -> fc7
I0808 16:28:37.247557 16855 net.cpp:141] Setting up fc7
I0808 16:28:37.247573 16855 net.cpp:148] Top shape: 1 1024 19 19 (369664)
I0808 16:28:37.247578 16855 net.cpp:156] Memory required for data: 225567776
I0808 16:28:37.247586 16855 layer_factory.hpp:77] Creating layer relu7
I0808 16:28:37.247596 16855 net.cpp:91] Creating Layer relu7
I0808 16:28:37.247601 16855 net.cpp:425] relu7 <- fc7
I0808 16:28:37.247619 16855 net.cpp:386] relu7 -> fc7 (in-place)
I0808 16:28:37.247797 16855 net.cpp:141] Setting up relu7
I0808 16:28:37.247809 16855 net.cpp:148] Top shape: 1 1024 19 19 (369664)
I0808 16:28:37.247813 16855 net.cpp:156] Memory required for data: 227046432
I0808 16:28:37.247817 16855 layer_factory.hpp:77] Creating layer fc7_relu7_0_split
I0808 16:28:37.247825 16855 net.cpp:91] Creating Layer fc7_relu7_0_split
I0808 16:28:37.247830 16855 net.cpp:425] fc7_relu7_0_split <- fc7
I0808 16:28:37.247838 16855 net.cpp:399] fc7_relu7_0_split -> fc7_relu7_0_split_0
I0808 16:28:37.247845 16855 net.cpp:399] fc7_relu7_0_split -> fc7_relu7_0_split_1
I0808 16:28:37.247859 16855 net.cpp:399] fc7_relu7_0_split -> fc7_relu7_0_split_2
I0808 16:28:37.247865 16855 net.cpp:399] fc7_relu7_0_split -> fc7_relu7_0_split_3
I0808 16:28:37.247958 16855 net.cpp:141] Setting up fc7_relu7_0_split
I0808 16:28:37.247968 16855 net.cpp:148] Top shape: 1 1024 19 19 (369664)
I0808 16:28:37.247975 16855 net.cpp:148] Top shape: 1 1024 19 19 (369664)
I0808 16:28:37.247980 16855 net.cpp:148] Top shape: 1 1024 19 19 (369664)
I0808 16:28:37.247984 16855 net.cpp:148] Top shape: 1 1024 19 19 (369664)
I0808 16:28:37.247988 16855 net.cpp:156] Memory required for data: 232961056
I0808 16:28:37.247993 16855 layer_factory.hpp:77] Creating layer conv6_1
I0808 16:28:37.248018 16855 net.cpp:91] Creating Layer conv6_1
I0808 16:28:37.248023 16855 net.cpp:425] conv6_1 <- fc7_relu7_0_split_0
I0808 16:28:37.248033 16855 net.cpp:399] conv6_1 -> conv6_1
I0808 16:28:37.251179 16855 net.cpp:141] Setting up conv6_1
I0808 16:28:37.251195 16855 net.cpp:148] Top shape: 1 256 19 19 (92416)
I0808 16:28:37.251200 16855 net.cpp:156] Memory required for data: 233330720
I0808 16:28:37.251207 16855 layer_factory.hpp:77] Creating layer conv6_1_relu
I0808 16:28:37.251216 16855 net.cpp:91] Creating Layer conv6_1_relu
I0808 16:28:37.251221 16855 net.cpp:425] conv6_1_relu <- conv6_1
I0808 16:28:37.251227 16855 net.cpp:386] conv6_1_relu -> conv6_1 (in-place)
I0808 16:28:37.251521 16855 net.cpp:141] Setting up conv6_1_relu
I0808 16:28:37.251534 16855 net.cpp:148] Top shape: 1 256 19 19 (92416)
I0808 16:28:37.251538 16855 net.cpp:156] Memory required for data: 233700384
I0808 16:28:37.251543 16855 layer_factory.hpp:77] Creating layer conv6_2
I0808 16:28:37.251557 16855 net.cpp:91] Creating Layer conv6_2
I0808 16:28:37.251562 16855 net.cpp:425] conv6_2 <- conv6_1
I0808 16:28:37.251569 16855 net.cpp:399] conv6_2 -> conv6_2
I0808 16:28:37.260489 16855 net.cpp:141] Setting up conv6_2
I0808 16:28:37.260506 16855 net.cpp:148] Top shape: 1 512 10 10 (51200)
I0808 16:28:37.260511 16855 net.cpp:156] Memory required for data: 233905184
I0808 16:28:37.260527 16855 layer_factory.hpp:77] Creating layer conv6_2_relu
I0808 16:28:37.260535 16855 net.cpp:91] Creating Layer conv6_2_relu
I0808 16:28:37.260540 16855 net.cpp:425] conv6_2_relu <- conv6_2
I0808 16:28:37.260546 16855 net.cpp:386] conv6_2_relu -> conv6_2 (in-place)
I0808 16:28:37.260718 16855 net.cpp:141] Setting up conv6_2_relu
I0808 16:28:37.260730 16855 net.cpp:148] Top shape: 1 512 10 10 (51200)
I0808 16:28:37.260735 16855 net.cpp:156] Memory required for data: 234109984
I0808 16:28:37.260740 16855 layer_factory.hpp:77] Creating layer conv6_2_conv6_2_relu_0_split
I0808 16:28:37.260748 16855 net.cpp:91] Creating Layer conv6_2_conv6_2_relu_0_split
I0808 16:28:37.260752 16855 net.cpp:425] conv6_2_conv6_2_relu_0_split <- conv6_2
I0808 16:28:37.260761 16855 net.cpp:399] conv6_2_conv6_2_relu_0_split -> conv6_2_conv6_2_relu_0_split_0
I0808 16:28:37.260767 16855 net.cpp:399] conv6_2_conv6_2_relu_0_split -> conv6_2_conv6_2_relu_0_split_1
I0808 16:28:37.260774 16855 net.cpp:399] conv6_2_conv6_2_relu_0_split -> conv6_2_conv6_2_relu_0_split_2
I0808 16:28:37.260782 16855 net.cpp:399] conv6_2_conv6_2_relu_0_split -> conv6_2_conv6_2_relu_0_split_3
I0808 16:28:37.260861 16855 net.cpp:141] Setting up conv6_2_conv6_2_relu_0_split
I0808 16:28:37.260872 16855 net.cpp:148] Top shape: 1 512 10 10 (51200)
I0808 16:28:37.260877 16855 net.cpp:148] Top shape: 1 512 10 10 (51200)
I0808 16:28:37.260892 16855 net.cpp:148] Top shape: 1 512 10 10 (51200)
I0808 16:28:37.260897 16855 net.cpp:148] Top shape: 1 512 10 10 (51200)
I0808 16:28:37.260900 16855 net.cpp:156] Memory required for data: 234929184
I0808 16:28:37.260905 16855 layer_factory.hpp:77] Creating layer conv7_1
I0808 16:28:37.260916 16855 net.cpp:91] Creating Layer conv7_1
I0808 16:28:37.260921 16855 net.cpp:425] conv7_1 <- conv6_2_conv6_2_relu_0_split_0
I0808 16:28:37.260928 16855 net.cpp:399] conv7_1 -> conv7_1
I0808 16:28:37.262367 16855 net.cpp:141] Setting up conv7_1
I0808 16:28:37.262382 16855 net.cpp:148] Top shape: 1 128 10 10 (12800)
I0808 16:28:37.262387 16855 net.cpp:156] Memory required for data: 234980384
I0808 16:28:37.262394 16855 layer_factory.hpp:77] Creating layer conv7_1_relu
I0808 16:28:37.262401 16855 net.cpp:91] Creating Layer conv7_1_relu
I0808 16:28:37.262405 16855 net.cpp:425] conv7_1_relu <- conv7_1
I0808 16:28:37.262413 16855 net.cpp:386] conv7_1_relu -> conv7_1 (in-place)
I0808 16:28:37.262585 16855 net.cpp:141] Setting up conv7_1_relu
I0808 16:28:37.262598 16855 net.cpp:148] Top shape: 1 128 10 10 (12800)
I0808 16:28:37.262603 16855 net.cpp:156] Memory required for data: 235031584
I0808 16:28:37.262606 16855 layer_factory.hpp:77] Creating layer conv7_2
I0808 16:28:37.262617 16855 net.cpp:91] Creating Layer conv7_2
I0808 16:28:37.262622 16855 net.cpp:425] conv7_2 <- conv7_1
I0808 16:28:37.262629 16855 net.cpp:399] conv7_2 -> conv7_2
I0808 16:28:37.265704 16855 net.cpp:141] Setting up conv7_2
I0808 16:28:37.265719 16855 net.cpp:148] Top shape: 1 256 5 5 (6400)
I0808 16:28:37.265724 16855 net.cpp:156] Memory required for data: 235057184
I0808 16:28:37.265732 16855 layer_factory.hpp:77] Creating layer conv7_2_relu
I0808 16:28:37.265738 16855 net.cpp:91] Creating Layer conv7_2_relu
I0808 16:28:37.265743 16855 net.cpp:425] conv7_2_relu <- conv7_2
I0808 16:28:37.265750 16855 net.cpp:386] conv7_2_relu -> conv7_2 (in-place)
I0808 16:28:37.266054 16855 net.cpp:141] Setting up conv7_2_relu
I0808 16:28:37.266068 16855 net.cpp:148] Top shape: 1 256 5 5 (6400)
I0808 16:28:37.266083 16855 net.cpp:156] Memory required for data: 235082784
I0808 16:28:37.266100 16855 layer_factory.hpp:77] Creating layer conv7_2_conv7_2_relu_0_split
I0808 16:28:37.266108 16855 net.cpp:91] Creating Layer conv7_2_conv7_2_relu_0_split
I0808 16:28:37.266116 16855 net.cpp:425] conv7_2_conv7_2_relu_0_split <- conv7_2
I0808 16:28:37.266124 16855 net.cpp:399] conv7_2_conv7_2_relu_0_split -> conv7_2_conv7_2_relu_0_split_0
I0808 16:28:37.266131 16855 net.cpp:399] conv7_2_conv7_2_relu_0_split -> conv7_2_conv7_2_relu_0_split_1
I0808 16:28:37.266139 16855 net.cpp:399] conv7_2_conv7_2_relu_0_split -> conv7_2_conv7_2_relu_0_split_2
I0808 16:28:37.266146 16855 net.cpp:399] conv7_2_conv7_2_relu_0_split -> conv7_2_conv7_2_relu_0_split_3
I0808 16:28:37.266239 16855 net.cpp:141] Setting up conv7_2_conv7_2_relu_0_split
I0808 16:28:37.266249 16855 net.cpp:148] Top shape: 1 256 5 5 (6400)
I0808 16:28:37.266254 16855 net.cpp:148] Top shape: 1 256 5 5 (6400)
I0808 16:28:37.266259 16855 net.cpp:148] Top shape: 1 256 5 5 (6400)
I0808 16:28:37.266263 16855 net.cpp:148] Top shape: 1 256 5 5 (6400)
I0808 16:28:37.266268 16855 net.cpp:156] Memory required for data: 235185184
I0808 16:28:37.266273 16855 layer_factory.hpp:77] Creating layer conv8_1
I0808 16:28:37.266284 16855 net.cpp:91] Creating Layer conv8_1
I0808 16:28:37.266290 16855 net.cpp:425] conv8_1 <- conv7_2_conv7_2_relu_0_split_0
I0808 16:28:37.266299 16855 net.cpp:399] conv8_1 -> conv8_1
I0808 16:28:37.268007 16855 net.cpp:141] Setting up conv8_1
I0808 16:28:37.268020 16855 net.cpp:148] Top shape: 1 128 5 5 (3200)
I0808 16:28:37.268025 16855 net.cpp:156] Memory required for data: 235197984
I0808 16:28:37.268034 16855 layer_factory.hpp:77] Creating layer conv8_1_relu
I0808 16:28:37.268043 16855 net.cpp:91] Creating Layer conv8_1_relu
I0808 16:28:37.268048 16855 net.cpp:425] conv8_1_relu <- conv8_1
I0808 16:28:37.268054 16855 net.cpp:386] conv8_1_relu -> conv8_1 (in-place)
I0808 16:28:37.268229 16855 net.cpp:141] Setting up conv8_1_relu
I0808 16:28:37.268249 16855 net.cpp:148] Top shape: 1 128 5 5 (3200)
I0808 16:28:37.268254 16855 net.cpp:156] Memory required for data: 235210784
I0808 16:28:37.268259 16855 layer_factory.hpp:77] Creating layer conv8_2
I0808 16:28:37.268271 16855 net.cpp:91] Creating Layer conv8_2
I0808 16:28:37.268276 16855 net.cpp:425] conv8_2 <- conv8_1
I0808 16:28:37.268283 16855 net.cpp:399] conv8_2 -> conv8_2
I0808 16:28:37.271387 16855 net.cpp:141] Setting up conv8_2
I0808 16:28:37.271404 16855 net.cpp:148] Top shape: 1 256 3 3 (2304)
I0808 16:28:37.271407 16855 net.cpp:156] Memory required for data: 235220000
I0808 16:28:37.271415 16855 layer_factory.hpp:77] Creating layer conv8_2_relu
I0808 16:28:37.271422 16855 net.cpp:91] Creating Layer conv8_2_relu
I0808 16:28:37.271426 16855 net.cpp:425] conv8_2_relu <- conv8_2
I0808 16:28:37.271435 16855 net.cpp:386] conv8_2_relu -> conv8_2 (in-place)
I0808 16:28:37.271605 16855 net.cpp:141] Setting up conv8_2_relu
I0808 16:28:37.271616 16855 net.cpp:148] Top shape: 1 256 3 3 (2304)
I0808 16:28:37.271622 16855 net.cpp:156] Memory required for data: 235229216
I0808 16:28:37.271626 16855 layer_factory.hpp:77] Creating layer conv8_2_conv8_2_relu_0_split
I0808 16:28:37.271633 16855 net.cpp:91] Creating Layer conv8_2_conv8_2_relu_0_split
I0808 16:28:37.271637 16855 net.cpp:425] conv8_2_conv8_2_relu_0_split <- conv8_2
I0808 16:28:37.271643 16855 net.cpp:399] conv8_2_conv8_2_relu_0_split -> conv8_2_conv8_2_relu_0_split_0
I0808 16:28:37.271651 16855 net.cpp:399] conv8_2_conv8_2_relu_0_split -> conv8_2_conv8_2_relu_0_split_1
I0808 16:28:37.271657 16855 net.cpp:399] conv8_2_conv8_2_relu_0_split -> conv8_2_conv8_2_relu_0_split_2
I0808 16:28:37.271666 16855 net.cpp:399] conv8_2_conv8_2_relu_0_split -> conv8_2_conv8_2_relu_0_split_3
I0808 16:28:37.271750 16855 net.cpp:141] Setting up conv8_2_conv8_2_relu_0_split
I0808 16:28:37.271759 16855 net.cpp:148] Top shape: 1 256 3 3 (2304)
I0808 16:28:37.271764 16855 net.cpp:148] Top shape: 1 256 3 3 (2304)
I0808 16:28:37.271769 16855 net.cpp:148] Top shape: 1 256 3 3 (2304)
I0808 16:28:37.271772 16855 net.cpp:148] Top shape: 1 256 3 3 (2304)
I0808 16:28:37.271776 16855 net.cpp:156] Memory required for data: 235266080
I0808 16:28:37.271780 16855 layer_factory.hpp:77] Creating layer pool6
I0808 16:28:37.271790 16855 net.cpp:91] Creating Layer pool6
I0808 16:28:37.271795 16855 net.cpp:425] pool6 <- conv8_2_conv8_2_relu_0_split_0
I0808 16:28:37.271800 16855 net.cpp:399] pool6 -> pool6
I0808 16:28:37.272116 16855 net.cpp:141] Setting up pool6
I0808 16:28:37.272132 16855 net.cpp:148] Top shape: 1 256 1 1 (256)
I0808 16:28:37.272137 16855 net.cpp:156] Memory required for data: 235267104
I0808 16:28:37.272141 16855 layer_factory.hpp:77] Creating layer pool6_pool6_0_split
I0808 16:28:37.272148 16855 net.cpp:91] Creating Layer pool6_pool6_0_split
I0808 16:28:37.272153 16855 net.cpp:425] pool6_pool6_0_split <- pool6
I0808 16:28:37.272159 16855 net.cpp:399] pool6_pool6_0_split -> pool6_pool6_0_split_0
I0808 16:28:37.272166 16855 net.cpp:399] pool6_pool6_0_split -> pool6_pool6_0_split_1
I0808 16:28:37.272173 16855 net.cpp:399] pool6_pool6_0_split -> pool6_pool6_0_split_2
I0808 16:28:37.272236 16855 net.cpp:141] Setting up pool6_pool6_0_split
I0808 16:28:37.272243 16855 net.cpp:148] Top shape: 1 256 1 1 (256)
I0808 16:28:37.272248 16855 net.cpp:148] Top shape: 1 256 1 1 (256)
I0808 16:28:37.272253 16855 net.cpp:148] Top shape: 1 256 1 1 (256)
I0808 16:28:37.272256 16855 net.cpp:156] Memory required for data: 235270176
I0808 16:28:37.272260 16855 layer_factory.hpp:77] Creating layer conv4_3_norm
I0808 16:28:37.272269 16855 net.cpp:91] Creating Layer conv4_3_norm
I0808 16:28:37.272274 16855 net.cpp:425] conv4_3_norm <- conv4_3_relu4_3_0_split_1
I0808 16:28:37.272280 16855 net.cpp:399] conv4_3_norm -> conv4_3_norm
I0808 16:28:37.272464 16855 net.cpp:141] Setting up conv4_3_norm
I0808 16:28:37.272474 16855 net.cpp:148] Top shape: 1 512 38 38 (739328)
I0808 16:28:37.272477 16855 net.cpp:156] Memory required for data: 238227488
I0808 16:28:37.272483 16855 layer_factory.hpp:77] Creating layer conv4_3_norm_conv4_3_norm_0_split
I0808 16:28:37.272500 16855 net.cpp:91] Creating Layer conv4_3_norm_conv4_3_norm_0_split
I0808 16:28:37.272505 16855 net.cpp:425] conv4_3_norm_conv4_3_norm_0_split <- conv4_3_norm
I0808 16:28:37.272511 16855 net.cpp:399] conv4_3_norm_conv4_3_norm_0_split -> conv4_3_norm_conv4_3_norm_0_split_0
I0808 16:28:37.272517 16855 net.cpp:399] conv4_3_norm_conv4_3_norm_0_split -> conv4_3_norm_conv4_3_norm_0_split_1
I0808 16:28:37.272524 16855 net.cpp:399] conv4_3_norm_conv4_3_norm_0_split -> conv4_3_norm_conv4_3_norm_0_split_2
I0808 16:28:37.272583 16855 net.cpp:141] Setting up conv4_3_norm_conv4_3_norm_0_split
I0808 16:28:37.272591 16855 net.cpp:148] Top shape: 1 512 38 38 (739328)
I0808 16:28:37.272595 16855 net.cpp:148] Top shape: 1 512 38 38 (739328)
I0808 16:28:37.272600 16855 net.cpp:148] Top shape: 1 512 38 38 (739328)
I0808 16:28:37.272603 16855 net.cpp:156] Memory required for data: 247099424
I0808 16:28:37.272608 16855 layer_factory.hpp:77] Creating layer conv4_3_norm_mbox_loc
I0808 16:28:37.272617 16855 net.cpp:91] Creating Layer conv4_3_norm_mbox_loc
I0808 16:28:37.272621 16855 net.cpp:425] conv4_3_norm_mbox_loc <- conv4_3_norm_conv4_3_norm_0_split_0
I0808 16:28:37.272630 16855 net.cpp:399] conv4_3_norm_mbox_loc -> conv4_3_norm_mbox_loc
I0808 16:28:37.274027 16855 net.cpp:141] Setting up conv4_3_norm_mbox_loc
I0808 16:28:37.274042 16855 net.cpp:148] Top shape: 1 12 38 38 (17328)
I0808 16:28:37.274047 16855 net.cpp:156] Memory required for data: 247168736
I0808 16:28:37.274055 16855 layer_factory.hpp:77] Creating layer conv4_3_norm_mbox_loc_perm
I0808 16:28:37.274065 16855 net.cpp:91] Creating Layer conv4_3_norm_mbox_loc_perm
I0808 16:28:37.274070 16855 net.cpp:425] conv4_3_norm_mbox_loc_perm <- conv4_3_norm_mbox_loc
I0808 16:28:37.274104 16855 net.cpp:399] conv4_3_norm_mbox_loc_perm -> conv4_3_norm_mbox_loc_perm
I0808 16:28:37.274248 16855 net.cpp:141] Setting up conv4_3_norm_mbox_loc_perm
I0808 16:28:37.274260 16855 net.cpp:148] Top shape: 1 38 38 12 (17328)
I0808 16:28:37.274263 16855 net.cpp:156] Memory required for data: 247238048
I0808 16:28:37.274268 16855 layer_factory.hpp:77] Creating layer conv4_3_norm_mbox_loc_flat
I0808 16:28:37.274276 16855 net.cpp:91] Creating Layer conv4_3_norm_mbox_loc_flat
I0808 16:28:37.274281 16855 net.cpp:425] conv4_3_norm_mbox_loc_flat <- conv4_3_norm_mbox_loc_perm
I0808 16:28:37.274289 16855 net.cpp:399] conv4_3_norm_mbox_loc_flat -> conv4_3_norm_mbox_loc_flat
I0808 16:28:37.274322 16855 net.cpp:141] Setting up conv4_3_norm_mbox_loc_flat
I0808 16:28:37.274328 16855 net.cpp:148] Top shape: 1 17328 (17328)
I0808 16:28:37.274333 16855 net.cpp:156] Memory required for data: 247307360
I0808 16:28:37.274338 16855 layer_factory.hpp:77] Creating layer conv4_3_norm_mbox_conf
I0808 16:28:37.274350 16855 net.cpp:91] Creating Layer conv4_3_norm_mbox_conf
I0808 16:28:37.274355 16855 net.cpp:425] conv4_3_norm_mbox_conf <- conv4_3_norm_conv4_3_norm_0_split_1
I0808 16:28:37.274363 16855 net.cpp:399] conv4_3_norm_mbox_conf -> conv4_3_norm_mbox_conf
I0808 16:28:37.276044 16855 net.cpp:141] Setting up conv4_3_norm_mbox_conf
I0808 16:28:37.276062 16855 net.cpp:148] Top shape: 1 6 38 38 (8664)
I0808 16:28:37.276067 16855 net.cpp:156] Memory required for data: 247342016
I0808 16:28:37.276077 16855 layer_factory.hpp:77] Creating layer conv4_3_norm_mbox_conf_perm
I0808 16:28:37.276098 16855 net.cpp:91] Creating Layer conv4_3_norm_mbox_conf_perm
I0808 16:28:37.276103 16855 net.cpp:425] conv4_3_norm_mbox_conf_perm <- conv4_3_norm_mbox_conf
I0808 16:28:37.276110 16855 net.cpp:399] conv4_3_norm_mbox_conf_perm -> conv4_3_norm_mbox_conf_perm
I0808 16:28:37.276263 16855 net.cpp:141] Setting up conv4_3_norm_mbox_conf_perm
I0808 16:28:37.276274 16855 net.cpp:148] Top shape: 1 38 38 6 (8664)
I0808 16:28:37.276279 16855 net.cpp:156] Memory required for data: 247376672
I0808 16:28:37.276283 16855 layer_factory.hpp:77] Creating layer conv4_3_norm_mbox_conf_flat
I0808 16:28:37.276291 16855 net.cpp:91] Creating Layer conv4_3_norm_mbox_conf_flat
I0808 16:28:37.276310 16855 net.cpp:425] conv4_3_norm_mbox_conf_flat <- conv4_3_norm_mbox_conf_perm
I0808 16:28:37.276321 16855 net.cpp:399] conv4_3_norm_mbox_conf_flat -> conv4_3_norm_mbox_conf_flat
I0808 16:28:37.276360 16855 net.cpp:141] Setting up conv4_3_norm_mbox_conf_flat
I0808 16:28:37.276381 16855 net.cpp:148] Top shape: 1 8664 (8664)
I0808 16:28:37.276386 16855 net.cpp:156] Memory required for data: 247411328
I0808 16:28:37.276391 16855 layer_factory.hpp:77] Creating layer conv4_3_norm_mbox_priorbox
I0808 16:28:37.276419 16855 net.cpp:91] Creating Layer conv4_3_norm_mbox_priorbox
I0808 16:28:37.276427 16855 net.cpp:425] conv4_3_norm_mbox_priorbox <- conv4_3_norm_conv4_3_norm_0_split_2
I0808 16:28:37.276433 16855 net.cpp:425] conv4_3_norm_mbox_priorbox <- data_data_0_split_1
I0808 16:28:37.276443 16855 net.cpp:399] conv4_3_norm_mbox_priorbox -> conv4_3_norm_mbox_priorbox
I0808 16:28:37.276481 16855 net.cpp:141] Setting up conv4_3_norm_mbox_priorbox
I0808 16:28:37.276491 16855 net.cpp:148] Top shape: 1 2 17328 (34656)
I0808 16:28:37.276495 16855 net.cpp:156] Memory required for data: 247549952
I0808 16:28:37.276500 16855 layer_factory.hpp:77] Creating layer fc7_mbox_loc
I0808 16:28:37.276515 16855 net.cpp:91] Creating Layer fc7_mbox_loc
I0808 16:28:37.276522 16855 net.cpp:425] fc7_mbox_loc <- fc7_relu7_0_split_1
I0808 16:28:37.276531 16855 net.cpp:399] fc7_mbox_loc -> fc7_mbox_loc
I0808 16:28:37.279603 16855 net.cpp:141] Setting up fc7_mbox_loc
I0808 16:28:37.279618 16855 net.cpp:148] Top shape: 1 24 19 19 (8664)
I0808 16:28:37.279623 16855 net.cpp:156] Memory required for data: 247584608
I0808 16:28:37.279629 16855 layer_factory.hpp:77] Creating layer fc7_mbox_loc_perm
I0808 16:28:37.279639 16855 net.cpp:91] Creating Layer fc7_mbox_loc_perm
I0808 16:28:37.279646 16855 net.cpp:425] fc7_mbox_loc_perm <- fc7_mbox_loc
I0808 16:28:37.279664 16855 net.cpp:399] fc7_mbox_loc_perm -> fc7_mbox_loc_perm
I0808 16:28:37.279806 16855 net.cpp:141] Setting up fc7_mbox_loc_perm
I0808 16:28:37.279816 16855 net.cpp:148] Top shape: 1 19 19 24 (8664)
I0808 16:28:37.279820 16855 net.cpp:156] Memory required for data: 247619264
I0808 16:28:37.279825 16855 layer_factory.hpp:77] Creating layer fc7_mbox_loc_flat
I0808 16:28:37.279831 16855 net.cpp:91] Creating Layer fc7_mbox_loc_flat
I0808 16:28:37.279836 16855 net.cpp:425] fc7_mbox_loc_flat <- fc7_mbox_loc_perm
I0808 16:28:37.279844 16855 net.cpp:399] fc7_mbox_loc_flat -> fc7_mbox_loc_flat
I0808 16:28:37.279877 16855 net.cpp:141] Setting up fc7_mbox_loc_flat
I0808 16:28:37.279888 16855 net.cpp:148] Top shape: 1 8664 (8664)
I0808 16:28:37.279892 16855 net.cpp:156] Memory required for data: 247653920
I0808 16:28:37.279896 16855 layer_factory.hpp:77] Creating layer fc7_mbox_conf
I0808 16:28:37.279908 16855 net.cpp:91] Creating Layer fc7_mbox_conf
I0808 16:28:37.279913 16855 net.cpp:425] fc7_mbox_conf <- fc7_relu7_0_split_2
I0808 16:28:37.279922 16855 net.cpp:399] fc7_mbox_conf -> fc7_mbox_conf
I0808 16:28:37.281647 16855 net.cpp:141] Setting up fc7_mbox_conf
I0808 16:28:37.281673 16855 net.cpp:148] Top shape: 1 12 19 19 (4332)
I0808 16:28:37.281679 16855 net.cpp:156] Memory required for data: 247671248
I0808 16:28:37.281687 16855 layer_factory.hpp:77] Creating layer fc7_mbox_conf_perm
I0808 16:28:37.281697 16855 net.cpp:91] Creating Layer fc7_mbox_conf_perm
I0808 16:28:37.281703 16855 net.cpp:425] fc7_mbox_conf_perm <- fc7_mbox_conf
I0808 16:28:37.281713 16855 net.cpp:399] fc7_mbox_conf_perm -> fc7_mbox_conf_perm
I0808 16:28:37.281852 16855 net.cpp:141] Setting up fc7_mbox_conf_perm
I0808 16:28:37.281862 16855 net.cpp:148] Top shape: 1 19 19 12 (4332)
I0808 16:28:37.281867 16855 net.cpp:156] Memory required for data: 247688576
I0808 16:28:37.281872 16855 layer_factory.hpp:77] Creating layer fc7_mbox_conf_flat
I0808 16:28:37.281878 16855 net.cpp:91] Creating Layer fc7_mbox_conf_flat
I0808 16:28:37.281883 16855 net.cpp:425] fc7_mbox_conf_flat <- fc7_mbox_conf_perm
I0808 16:28:37.281889 16855 net.cpp:399] fc7_mbox_conf_flat -> fc7_mbox_conf_flat
I0808 16:28:37.281924 16855 net.cpp:141] Setting up fc7_mbox_conf_flat
I0808 16:28:37.281944 16855 net.cpp:148] Top shape: 1 4332 (4332)
I0808 16:28:37.281949 16855 net.cpp:156] Memory required for data: 247705904
I0808 16:28:37.281955 16855 layer_factory.hpp:77] Creating layer fc7_mbox_priorbox
I0808 16:28:37.281963 16855 net.cpp:91] Creating Layer fc7_mbox_priorbox
I0808 16:28:37.281968 16855 net.cpp:425] fc7_mbox_priorbox <- fc7_relu7_0_split_3
I0808 16:28:37.281975 16855 net.cpp:425] fc7_mbox_priorbox <- data_data_0_split_2
I0808 16:28:37.281981 16855 net.cpp:399] fc7_mbox_priorbox -> fc7_mbox_priorbox
I0808 16:28:37.282021 16855 net.cpp:141] Setting up fc7_mbox_priorbox
I0808 16:28:37.282029 16855 net.cpp:148] Top shape: 1 2 8664 (17328)
I0808 16:28:37.282034 16855 net.cpp:156] Memory required for data: 247775216
I0808 16:28:37.282038 16855 layer_factory.hpp:77] Creating layer conv6_2_mbox_loc
I0808 16:28:37.282050 16855 net.cpp:91] Creating Layer conv6_2_mbox_loc
I0808 16:28:37.282055 16855 net.cpp:425] conv6_2_mbox_loc <- conv6_2_conv6_2_relu_0_split_1
I0808 16:28:37.282064 16855 net.cpp:399] conv6_2_mbox_loc -> conv6_2_mbox_loc
I0808 16:28:37.284235 16855 net.cpp:141] Setting up conv6_2_mbox_loc
I0808 16:28:37.284261 16855 net.cpp:148] Top shape: 1 24 10 10 (2400)
I0808 16:28:37.284266 16855 net.cpp:156] Memory required for data: 247784816
I0808 16:28:37.284274 16855 layer_factory.hpp:77] Creating layer conv6_2_mbox_loc_perm
I0808 16:28:37.284284 16855 net.cpp:91] Creating Layer conv6_2_mbox_loc_perm
I0808 16:28:37.284289 16855 net.cpp:425] conv6_2_mbox_loc_perm <- conv6_2_mbox_loc
I0808 16:28:37.284296 16855 net.cpp:399] conv6_2_mbox_loc_perm -> conv6_2_mbox_loc_perm
I0808 16:28:37.284437 16855 net.cpp:141] Setting up conv6_2_mbox_loc_perm
I0808 16:28:37.284447 16855 net.cpp:148] Top shape: 1 10 10 24 (2400)
I0808 16:28:37.284452 16855 net.cpp:156] Memory required for data: 247794416
I0808 16:28:37.284456 16855 layer_factory.hpp:77] Creating layer conv6_2_mbox_loc_flat
I0808 16:28:37.284463 16855 net.cpp:91] Creating Layer conv6_2_mbox_loc_flat
I0808 16:28:37.284468 16855 net.cpp:425] conv6_2_mbox_loc_flat <- conv6_2_mbox_loc_perm
I0808 16:28:37.284476 16855 net.cpp:399] conv6_2_mbox_loc_flat -> conv6_2_mbox_loc_flat
I0808 16:28:37.284508 16855 net.cpp:141] Setting up conv6_2_mbox_loc_flat
I0808 16:28:37.284518 16855 net.cpp:148] Top shape: 1 2400 (2400)
I0808 16:28:37.284523 16855 net.cpp:156] Memory required for data: 247804016
I0808 16:28:37.284528 16855 layer_factory.hpp:77] Creating layer conv6_2_mbox_conf
I0808 16:28:37.284541 16855 net.cpp:91] Creating Layer conv6_2_mbox_conf
I0808 16:28:37.284546 16855 net.cpp:425] conv6_2_mbox_conf <- conv6_2_conv6_2_relu_0_split_2
I0808 16:28:37.284554 16855 net.cpp:399] conv6_2_mbox_conf -> conv6_2_mbox_conf
I0808 16:28:37.285979 16855 net.cpp:141] Setting up conv6_2_mbox_conf
I0808 16:28:37.286006 16855 net.cpp:148] Top shape: 1 12 10 10 (1200)
I0808 16:28:37.286012 16855 net.cpp:156] Memory required for data: 247808816
I0808 16:28:37.286020 16855 layer_factory.hpp:77] Creating layer conv6_2_mbox_conf_perm
I0808 16:28:37.286028 16855 net.cpp:91] Creating Layer conv6_2_mbox_conf_perm
I0808 16:28:37.286033 16855 net.cpp:425] conv6_2_mbox_conf_perm <- conv6_2_mbox_conf
I0808 16:28:37.286041 16855 net.cpp:399] conv6_2_mbox_conf_perm -> conv6_2_mbox_conf_perm
I0808 16:28:37.286217 16855 net.cpp:141] Setting up conv6_2_mbox_conf_perm
I0808 16:28:37.286229 16855 net.cpp:148] Top shape: 1 10 10 12 (1200)
I0808 16:28:37.286233 16855 net.cpp:156] Memory required for data: 247813616
I0808 16:28:37.286238 16855 layer_factory.hpp:77] Creating layer conv6_2_mbox_conf_flat
I0808 16:28:37.286247 16855 net.cpp:91] Creating Layer conv6_2_mbox_conf_flat
I0808 16:28:37.286252 16855 net.cpp:425] conv6_2_mbox_conf_flat <- conv6_2_mbox_conf_perm
I0808 16:28:37.286258 16855 net.cpp:399] conv6_2_mbox_conf_flat -> conv6_2_mbox_conf_flat
I0808 16:28:37.286295 16855 net.cpp:141] Setting up conv6_2_mbox_conf_flat
I0808 16:28:37.286304 16855 net.cpp:148] Top shape: 1 1200 (1200)
I0808 16:28:37.286309 16855 net.cpp:156] Memory required for data: 247818416
I0808 16:28:37.286324 16855 layer_factory.hpp:77] Creating layer conv6_2_mbox_priorbox
I0808 16:28:37.286331 16855 net.cpp:91] Creating Layer conv6_2_mbox_priorbox
I0808 16:28:37.286336 16855 net.cpp:425] conv6_2_mbox_priorbox <- conv6_2_conv6_2_relu_0_split_3
I0808 16:28:37.286344 16855 net.cpp:425] conv6_2_mbox_priorbox <- data_data_0_split_3
I0808 16:28:37.286352 16855 net.cpp:399] conv6_2_mbox_priorbox -> conv6_2_mbox_priorbox
I0808 16:28:37.286392 16855 net.cpp:141] Setting up conv6_2_mbox_priorbox
I0808 16:28:37.286401 16855 net.cpp:148] Top shape: 1 2 2400 (4800)
I0808 16:28:37.286417 16855 net.cpp:156] Memory required for data: 247837616
I0808 16:28:37.286422 16855 layer_factory.hpp:77] Creating layer conv7_2_mbox_loc
I0808 16:28:37.286434 16855 net.cpp:91] Creating Layer conv7_2_mbox_loc
I0808 16:28:37.286439 16855 net.cpp:425] conv7_2_mbox_loc <- conv7_2_conv7_2_relu_0_split_1
I0808 16:28:37.286448 16855 net.cpp:399] conv7_2_mbox_loc -> conv7_2_mbox_loc
I0808 16:28:37.287998 16855 net.cpp:141] Setting up conv7_2_mbox_loc
I0808 16:28:37.288024 16855 net.cpp:148] Top shape: 1 24 5 5 (600)
I0808 16:28:37.288030 16855 net.cpp:156] Memory required for data: 247840016
I0808 16:28:37.288038 16855 layer_factory.hpp:77] Creating layer conv7_2_mbox_loc_perm
I0808 16:28:37.288049 16855 net.cpp:91] Creating Layer conv7_2_mbox_loc_perm
I0808 16:28:37.288055 16855 net.cpp:425] conv7_2_mbox_loc_perm <- conv7_2_mbox_loc
I0808 16:28:37.288064 16855 net.cpp:399] conv7_2_mbox_loc_perm -> conv7_2_mbox_loc_perm
I0808 16:28:37.288203 16855 net.cpp:141] Setting up conv7_2_mbox_loc_perm
I0808 16:28:37.288213 16855 net.cpp:148] Top shape: 1 5 5 24 (600)
I0808 16:28:37.288218 16855 net.cpp:156] Memory required for data: 247842416
I0808 16:28:37.288223 16855 layer_factory.hpp:77] Creating layer conv7_2_mbox_loc_flat
I0808 16:28:37.288229 16855 net.cpp:91] Creating Layer conv7_2_mbox_loc_flat
I0808 16:28:37.288234 16855 net.cpp:425] conv7_2_mbox_loc_flat <- conv7_2_mbox_loc_perm
I0808 16:28:37.288240 16855 net.cpp:399] conv7_2_mbox_loc_flat -> conv7_2_mbox_loc_flat
I0808 16:28:37.288275 16855 net.cpp:141] Setting up conv7_2_mbox_loc_flat
I0808 16:28:37.288285 16855 net.cpp:148] Top shape: 1 600 (600)
I0808 16:28:37.288290 16855 net.cpp:156] Memory required for data: 247844816
I0808 16:28:37.288293 16855 layer_factory.hpp:77] Creating layer conv7_2_mbox_conf
I0808 16:28:37.288305 16855 net.cpp:91] Creating Layer conv7_2_mbox_conf
I0808 16:28:37.288311 16855 net.cpp:425] conv7_2_mbox_conf <- conv7_2_conv7_2_relu_0_split_2
I0808 16:28:37.288321 16855 net.cpp:399] conv7_2_mbox_conf -> conv7_2_mbox_conf
I0808 16:28:37.289463 16855 net.cpp:141] Setting up conv7_2_mbox_conf
I0808 16:28:37.289489 16855 net.cpp:148] Top shape: 1 12 5 5 (300)
I0808 16:28:37.289494 16855 net.cpp:156] Memory required for data: 247846016
I0808 16:28:37.289502 16855 layer_factory.hpp:77] Creating layer conv7_2_mbox_conf_perm
I0808 16:28:37.289512 16855 net.cpp:91] Creating Layer conv7_2_mbox_conf_perm
I0808 16:28:37.289518 16855 net.cpp:425] conv7_2_mbox_conf_perm <- conv7_2_mbox_conf
I0808 16:28:37.289525 16855 net.cpp:399] conv7_2_mbox_conf_perm -> conv7_2_mbox_conf_perm
I0808 16:28:37.289667 16855 net.cpp:141] Setting up conv7_2_mbox_conf_perm
I0808 16:28:37.289677 16855 net.cpp:148] Top shape: 1 5 5 12 (300)
I0808 16:28:37.289682 16855 net.cpp:156] Memory required for data: 247847216
I0808 16:28:37.289686 16855 layer_factory.hpp:77] Creating layer conv7_2_mbox_conf_flat
I0808 16:28:37.289693 16855 net.cpp:91] Creating Layer conv7_2_mbox_conf_flat
I0808 16:28:37.289698 16855 net.cpp:425] conv7_2_mbox_conf_flat <- conv7_2_mbox_conf_perm
I0808 16:28:37.289706 16855 net.cpp:399] conv7_2_mbox_conf_flat -> conv7_2_mbox_conf_flat
I0808 16:28:37.289741 16855 net.cpp:141] Setting up conv7_2_mbox_conf_flat
I0808 16:28:37.289750 16855 net.cpp:148] Top shape: 1 300 (300)
I0808 16:28:37.289754 16855 net.cpp:156] Memory required for data: 247848416
I0808 16:28:37.289758 16855 layer_factory.hpp:77] Creating layer conv7_2_mbox_priorbox
I0808 16:28:37.289765 16855 net.cpp:91] Creating Layer conv7_2_mbox_priorbox
I0808 16:28:37.289780 16855 net.cpp:425] conv7_2_mbox_priorbox <- conv7_2_conv7_2_relu_0_split_3
I0808 16:28:37.289788 16855 net.cpp:425] conv7_2_mbox_priorbox <- data_data_0_split_4
I0808 16:28:37.289796 16855 net.cpp:399] conv7_2_mbox_priorbox -> conv7_2_mbox_priorbox
I0808 16:28:37.289836 16855 net.cpp:141] Setting up conv7_2_mbox_priorbox
I0808 16:28:37.289846 16855 net.cpp:148] Top shape: 1 2 600 (1200)
I0808 16:28:37.289850 16855 net.cpp:156] Memory required for data: 247853216
I0808 16:28:37.289855 16855 layer_factory.hpp:77] Creating layer conv8_2_mbox_loc
I0808 16:28:37.289866 16855 net.cpp:91] Creating Layer conv8_2_mbox_loc
I0808 16:28:37.289871 16855 net.cpp:425] conv8_2_mbox_loc <- conv8_2_conv8_2_relu_0_split_1
I0808 16:28:37.289880 16855 net.cpp:399] conv8_2_mbox_loc -> conv8_2_mbox_loc
I0808 16:28:37.292018 16855 net.cpp:141] Setting up conv8_2_mbox_loc
I0808 16:28:37.292034 16855 net.cpp:148] Top shape: 1 24 3 3 (216)
I0808 16:28:37.292039 16855 net.cpp:156] Memory required for data: 247854080
I0808 16:28:37.292047 16855 layer_factory.hpp:77] Creating layer conv8_2_mbox_loc_perm
I0808 16:28:37.292054 16855 net.cpp:91] Creating Layer conv8_2_mbox_loc_perm
I0808 16:28:37.292059 16855 net.cpp:425] conv8_2_mbox_loc_perm <- conv8_2_mbox_loc
I0808 16:28:37.292067 16855 net.cpp:399] conv8_2_mbox_loc_perm -> conv8_2_mbox_loc_perm
I0808 16:28:37.292197 16855 net.cpp:141] Setting up conv8_2_mbox_loc_perm
I0808 16:28:37.292207 16855 net.cpp:148] Top shape: 1 3 3 24 (216)
I0808 16:28:37.292212 16855 net.cpp:156] Memory required for data: 247854944
I0808 16:28:37.292217 16855 layer_factory.hpp:77] Creating layer conv8_2_mbox_loc_flat
I0808 16:28:37.292223 16855 net.cpp:91] Creating Layer conv8_2_mbox_loc_flat
I0808 16:28:37.292228 16855 net.cpp:425] conv8_2_mbox_loc_flat <- conv8_2_mbox_loc_perm
I0808 16:28:37.292234 16855 net.cpp:399] conv8_2_mbox_loc_flat -> conv8_2_mbox_loc_flat
I0808 16:28:37.292268 16855 net.cpp:141] Setting up conv8_2_mbox_loc_flat
I0808 16:28:37.292276 16855 net.cpp:148] Top shape: 1 216 (216)
I0808 16:28:37.292281 16855 net.cpp:156] Memory required for data: 247855808
I0808 16:28:37.292285 16855 layer_factory.hpp:77] Creating layer conv8_2_mbox_conf
I0808 16:28:37.292295 16855 net.cpp:91] Creating Layer conv8_2_mbox_conf
I0808 16:28:37.292300 16855 net.cpp:425] conv8_2_mbox_conf <- conv8_2_conv8_2_relu_0_split_2
I0808 16:28:37.292309 16855 net.cpp:399] conv8_2_mbox_conf -> conv8_2_mbox_conf
I0808 16:28:37.293550 16855 net.cpp:141] Setting up conv8_2_mbox_conf
I0808 16:28:37.293565 16855 net.cpp:148] Top shape: 1 12 3 3 (108)
I0808 16:28:37.293570 16855 net.cpp:156] Memory required for data: 247856240
I0808 16:28:37.293576 16855 layer_factory.hpp:77] Creating layer conv8_2_mbox_conf_perm
I0808 16:28:37.293586 16855 net.cpp:91] Creating Layer conv8_2_mbox_conf_perm
I0808 16:28:37.293591 16855 net.cpp:425] conv8_2_mbox_conf_perm <- conv8_2_mbox_conf
I0808 16:28:37.293599 16855 net.cpp:399] conv8_2_mbox_conf_perm -> conv8_2_mbox_conf_perm
I0808 16:28:37.293728 16855 net.cpp:141] Setting up conv8_2_mbox_conf_perm
I0808 16:28:37.293740 16855 net.cpp:148] Top shape: 1 3 3 12 (108)
I0808 16:28:37.293745 16855 net.cpp:156] Memory required for data: 247856672
I0808 16:28:37.293748 16855 layer_factory.hpp:77] Creating layer conv8_2_mbox_conf_flat
I0808 16:28:37.293754 16855 net.cpp:91] Creating Layer conv8_2_mbox_conf_flat
I0808 16:28:37.293759 16855 net.cpp:425] conv8_2_mbox_conf_flat <- conv8_2_mbox_conf_perm
I0808 16:28:37.293766 16855 net.cpp:399] conv8_2_mbox_conf_flat -> conv8_2_mbox_conf_flat
I0808 16:28:37.293797 16855 net.cpp:141] Setting up conv8_2_mbox_conf_flat
I0808 16:28:37.293808 16855 net.cpp:148] Top shape: 1 108 (108)
I0808 16:28:37.293812 16855 net.cpp:156] Memory required for data: 247857104
I0808 16:28:37.293817 16855 layer_factory.hpp:77] Creating layer conv8_2_mbox_priorbox
I0808 16:28:37.293824 16855 net.cpp:91] Creating Layer conv8_2_mbox_priorbox
I0808 16:28:37.293828 16855 net.cpp:425] conv8_2_mbox_priorbox <- conv8_2_conv8_2_relu_0_split_3
I0808 16:28:37.293844 16855 net.cpp:425] conv8_2_mbox_priorbox <- data_data_0_split_5
I0808 16:28:37.293853 16855 net.cpp:399] conv8_2_mbox_priorbox -> conv8_2_mbox_priorbox
I0808 16:28:37.293889 16855 net.cpp:141] Setting up conv8_2_mbox_priorbox
I0808 16:28:37.293900 16855 net.cpp:148] Top shape: 1 2 216 (432)
I0808 16:28:37.293903 16855 net.cpp:156] Memory required for data: 247858832
I0808 16:28:37.293907 16855 layer_factory.hpp:77] Creating layer pool6_mbox_loc
I0808 16:28:37.293918 16855 net.cpp:91] Creating Layer pool6_mbox_loc
I0808 16:28:37.293923 16855 net.cpp:425] pool6_mbox_loc <- pool6_pool6_0_split_0
I0808 16:28:37.293932 16855 net.cpp:399] pool6_mbox_loc -> pool6_mbox_loc
I0808 16:28:37.295361 16855 net.cpp:141] Setting up pool6_mbox_loc
I0808 16:28:37.295375 16855 net.cpp:148] Top shape: 1 24 1 1 (24)
I0808 16:28:37.295380 16855 net.cpp:156] Memory required for data: 247858928
I0808 16:28:37.295399 16855 layer_factory.hpp:77] Creating layer pool6_mbox_loc_perm
I0808 16:28:37.295406 16855 net.cpp:91] Creating Layer pool6_mbox_loc_perm
I0808 16:28:37.295411 16855 net.cpp:425] pool6_mbox_loc_perm <- pool6_mbox_loc
I0808 16:28:37.295420 16855 net.cpp:399] pool6_mbox_loc_perm -> pool6_mbox_loc_perm
I0808 16:28:37.295554 16855 net.cpp:141] Setting up pool6_mbox_loc_perm
I0808 16:28:37.295564 16855 net.cpp:148] Top shape: 1 1 1 24 (24)
I0808 16:28:37.295568 16855 net.cpp:156] Memory required for data: 247859024
I0808 16:28:37.295572 16855 layer_factory.hpp:77] Creating layer pool6_mbox_loc_flat
I0808 16:28:37.295579 16855 net.cpp:91] Creating Layer pool6_mbox_loc_flat
I0808 16:28:37.295584 16855 net.cpp:425] pool6_mbox_loc_flat <- pool6_mbox_loc_perm
I0808 16:28:37.295590 16855 net.cpp:399] pool6_mbox_loc_flat -> pool6_mbox_loc_flat
I0808 16:28:37.295622 16855 net.cpp:141] Setting up pool6_mbox_loc_flat
I0808 16:28:37.295631 16855 net.cpp:148] Top shape: 1 24 (24)
I0808 16:28:37.295636 16855 net.cpp:156] Memory required for data: 247859120
I0808 16:28:37.295640 16855 layer_factory.hpp:77] Creating layer pool6_mbox_conf
I0808 16:28:37.295650 16855 net.cpp:91] Creating Layer pool6_mbox_conf
I0808 16:28:37.295655 16855 net.cpp:425] pool6_mbox_conf <- pool6_pool6_0_split_1
I0808 16:28:37.295663 16855 net.cpp:399] pool6_mbox_conf -> pool6_mbox_conf
I0808 16:28:37.297011 16855 net.cpp:141] Setting up pool6_mbox_conf
I0808 16:28:37.297025 16855 net.cpp:148] Top shape: 1 12 1 1 (12)
I0808 16:28:37.297030 16855 net.cpp:156] Memory required for data: 247859168
I0808 16:28:37.297037 16855 layer_factory.hpp:77] Creating layer pool6_mbox_conf_perm
I0808 16:28:37.297044 16855 net.cpp:91] Creating Layer pool6_mbox_conf_perm
I0808 16:28:37.297049 16855 net.cpp:425] pool6_mbox_conf_perm <- pool6_mbox_conf
I0808 16:28:37.297058 16855 net.cpp:399] pool6_mbox_conf_perm -> pool6_mbox_conf_perm
I0808 16:28:37.297207 16855 net.cpp:141] Setting up pool6_mbox_conf_perm
I0808 16:28:37.297240 16855 net.cpp:148] Top shape: 1 1 1 12 (12)
I0808 16:28:37.297245 16855 net.cpp:156] Memory required for data: 247859216
I0808 16:28:37.297250 16855 layer_factory.hpp:77] Creating layer pool6_mbox_conf_flat
I0808 16:28:37.297255 16855 net.cpp:91] Creating Layer pool6_mbox_conf_flat
I0808 16:28:37.297260 16855 net.cpp:425] pool6_mbox_conf_flat <- pool6_mbox_conf_perm
I0808 16:28:37.297268 16855 net.cpp:399] pool6_mbox_conf_flat -> pool6_mbox_conf_flat
I0808 16:28:37.297305 16855 net.cpp:141] Setting up pool6_mbox_conf_flat
I0808 16:28:37.297313 16855 net.cpp:148] Top shape: 1 12 (12)
I0808 16:28:37.297318 16855 net.cpp:156] Memory required for data: 247859264
I0808 16:28:37.297322 16855 layer_factory.hpp:77] Creating layer pool6_mbox_priorbox
I0808 16:28:37.297332 16855 net.cpp:91] Creating Layer pool6_mbox_priorbox
I0808 16:28:37.297336 16855 net.cpp:425] pool6_mbox_priorbox <- pool6_pool6_0_split_2
I0808 16:28:37.297341 16855 net.cpp:425] pool6_mbox_priorbox <- data_data_0_split_6
I0808 16:28:37.297349 16855 net.cpp:399] pool6_mbox_priorbox -> pool6_mbox_priorbox
I0808 16:28:37.297384 16855 net.cpp:141] Setting up pool6_mbox_priorbox
I0808 16:28:37.297404 16855 net.cpp:148] Top shape: 1 2 24 (48)
I0808 16:28:37.297407 16855 net.cpp:156] Memory required for data: 247859456
I0808 16:28:37.297412 16855 layer_factory.hpp:77] Creating layer mbox_loc
I0808 16:28:37.297421 16855 net.cpp:91] Creating Layer mbox_loc
I0808 16:28:37.297426 16855 net.cpp:425] mbox_loc <- conv4_3_norm_mbox_loc_flat
I0808 16:28:37.297432 16855 net.cpp:425] mbox_loc <- fc7_mbox_loc_flat
I0808 16:28:37.297437 16855 net.cpp:425] mbox_loc <- conv6_2_mbox_loc_flat
I0808 16:28:37.297442 16855 net.cpp:425] mbox_loc <- conv7_2_mbox_loc_flat
I0808 16:28:37.297447 16855 net.cpp:425] mbox_loc <- conv8_2_mbox_loc_flat
I0808 16:28:37.297451 16855 net.cpp:425] mbox_loc <- pool6_mbox_loc_flat
I0808 16:28:37.297457 16855 net.cpp:399] mbox_loc -> mbox_loc
I0808 16:28:37.297497 16855 net.cpp:141] Setting up mbox_loc
I0808 16:28:37.297503 16855 net.cpp:148] Top shape: 1 29232 (29232)
I0808 16:28:37.297508 16855 net.cpp:156] Memory required for data: 247976384
I0808 16:28:37.297511 16855 layer_factory.hpp:77] Creating layer mbox_conf
I0808 16:28:37.297518 16855 net.cpp:91] Creating Layer mbox_conf
I0808 16:28:37.297523 16855 net.cpp:425] mbox_conf <- conv4_3_norm_mbox_conf_flat
I0808 16:28:37.297528 16855 net.cpp:425] mbox_conf <- fc7_mbox_conf_flat
I0808 16:28:37.297533 16855 net.cpp:425] mbox_conf <- conv6_2_mbox_conf_flat
I0808 16:28:37.297538 16855 net.cpp:425] mbox_conf <- conv7_2_mbox_conf_flat
I0808 16:28:37.297543 16855 net.cpp:425] mbox_conf <- conv8_2_mbox_conf_flat
I0808 16:28:37.297546 16855 net.cpp:425] mbox_conf <- pool6_mbox_conf_flat
I0808 16:28:37.297556 16855 net.cpp:399] mbox_conf -> mbox_conf
I0808 16:28:37.297590 16855 net.cpp:141] Setting up mbox_conf
I0808 16:28:37.297598 16855 net.cpp:148] Top shape: 1 14616 (14616)
I0808 16:28:37.297602 16855 net.cpp:156] Memory required for data: 248034848
I0808 16:28:37.297606 16855 layer_factory.hpp:77] Creating layer mbox_priorbox
I0808 16:28:37.297612 16855 net.cpp:91] Creating Layer mbox_priorbox
I0808 16:28:37.297617 16855 net.cpp:425] mbox_priorbox <- conv4_3_norm_mbox_priorbox
I0808 16:28:37.297622 16855 net.cpp:425] mbox_priorbox <- fc7_mbox_priorbox
I0808 16:28:37.297627 16855 net.cpp:425] mbox_priorbox <- conv6_2_mbox_priorbox
I0808 16:28:37.297631 16855 net.cpp:425] mbox_priorbox <- conv7_2_mbox_priorbox
I0808 16:28:37.297636 16855 net.cpp:425] mbox_priorbox <- conv8_2_mbox_priorbox
I0808 16:28:37.297641 16855 net.cpp:425] mbox_priorbox <- pool6_mbox_priorbox
I0808 16:28:37.297646 16855 net.cpp:399] mbox_priorbox -> mbox_priorbox
I0808 16:28:37.297678 16855 net.cpp:141] Setting up mbox_priorbox
I0808 16:28:37.297685 16855 net.cpp:148] Top shape: 1 2 29232 (58464)
I0808 16:28:37.297689 16855 net.cpp:156] Memory required for data: 248268704
I0808 16:28:37.297693 16855 layer_factory.hpp:77] Creating layer mbox_conf_reshape
I0808 16:28:37.297704 16855 net.cpp:91] Creating Layer mbox_conf_reshape
I0808 16:28:37.297709 16855 net.cpp:425] mbox_conf_reshape <- mbox_conf
I0808 16:28:37.297714 16855 net.cpp:399] mbox_conf_reshape -> mbox_conf_reshape
I0808 16:28:37.297760 16855 net.cpp:141] Setting up mbox_conf_reshape
I0808 16:28:37.297767 16855 net.cpp:148] Top shape: 1 7308 2 (14616)
I0808 16:28:37.297772 16855 net.cpp:156] Memory required for data: 248327168
I0808 16:28:37.297776 16855 layer_factory.hpp:77] Creating layer mbox_conf_softmax
I0808 16:28:37.297783 16855 net.cpp:91] Creating Layer mbox_conf_softmax
I0808 16:28:37.297790 16855 net.cpp:425] mbox_conf_softmax <- mbox_conf_reshape
I0808 16:28:37.297796 16855 net.cpp:399] mbox_conf_softmax -> mbox_conf_softmax
I0808 16:28:37.298051 16855 net.cpp:141] Setting up mbox_conf_softmax
I0808 16:28:37.298063 16855 net.cpp:148] Top shape: 1 7308 2 (14616)
I0808 16:28:37.298068 16855 net.cpp:156] Memory required for data: 248385632
I0808 16:28:37.298071 16855 layer_factory.hpp:77] Creating layer mbox_conf_flatten
I0808 16:28:37.298104 16855 net.cpp:91] Creating Layer mbox_conf_flatten
I0808 16:28:37.298108 16855 net.cpp:425] mbox_conf_flatten <- mbox_conf_softmax
I0808 16:28:37.298117 16855 net.cpp:399] mbox_conf_flatten -> mbox_conf_flatten
I0808 16:28:37.298166 16855 net.cpp:141] Setting up mbox_conf_flatten
I0808 16:28:37.298177 16855 net.cpp:148] Top shape: 1 14616 (14616)
I0808 16:28:37.298182 16855 net.cpp:156] Memory required for data: 248444096
I0808 16:28:37.298185 16855 layer_factory.hpp:77] Creating layer detection_out
I0808 16:28:37.298202 16855 net.cpp:91] Creating Layer detection_out
I0808 16:28:37.298207 16855 net.cpp:425] detection_out <- mbox_loc
I0808 16:28:37.298213 16855 net.cpp:425] detection_out <- mbox_conf_flatten
I0808 16:28:37.298219 16855 net.cpp:425] detection_out <- mbox_priorbox
I0808 16:28:37.298225 16855 net.cpp:399] detection_out -> detection_out
I0808 16:28:37.299033 16855 net.cpp:141] Setting up detection_out
I0808 16:28:37.299047 16855 net.cpp:148] Top shape: 1 1 1 7 (7)
I0808 16:28:37.299052 16855 net.cpp:156] Memory required for data: 248444124
I0808 16:28:37.299057 16855 layer_factory.hpp:77] Creating layer detection_eval
I0808 16:28:37.299067 16855 net.cpp:91] Creating Layer detection_eval
I0808 16:28:37.299072 16855 net.cpp:425] detection_eval <- detection_out
I0808 16:28:37.299078 16855 net.cpp:425] detection_eval <- label
I0808 16:28:37.299084 16855 net.cpp:399] detection_eval -> detection_eval
I0808 16:28:37.299280 16855 net.cpp:141] Setting up detection_eval
I0808 16:28:37.299290 16855 net.cpp:148] Top shape: 1 1 2 5 (10)
I0808 16:28:37.299294 16855 net.cpp:156] Memory required for data: 248444164
I0808 16:28:37.299299 16855 net.cpp:219] detection_eval does not need backward computation.
I0808 16:28:37.299304 16855 net.cpp:219] detection_out does not need backward computation.
I0808 16:28:37.299309 16855 net.cpp:219] mbox_conf_flatten does not need backward computation.
I0808 16:28:37.299312 16855 net.cpp:219] mbox_conf_softmax does not need backward computation.
…
